GNN/global_gnn.pt (torch, 2920 bytes, 3 tensors)

conv1.bias f4 [16]
000000 3e 85 36 bc 88 7f 48 bb 00 1b a0 36 7d a0 6f bc
       -0.011140166 -0.0030593593 4.771515e-06 -0.014625666
000010 e0 ed b4 3b ce 2e 50 3c f8 1e ff bb 05 8d 93 bb
       0.005521521 0.012706472 -0.007785674 -0.004502895
000020 f5 d7 1d bc 80 91 b8 3a 08 49 75 3c fc 7a 38 bc
       -0.009634008 0.0014081448 0.014971025 -0.0112597905
000030 6e 3e 1c bc 1e ee e7 ba 68 62 3e bc 9c 2f 1c bb
       -0.009536369 -0.0017694866 -0.011620142 -0.0023832088

conv1.lin.weight f4 [16, 9]
000000 d9 f0 a6 bd 3f 1a 9e 3c d0 00 1c 3b ba 8b b9 3c
       -0.08151407 0.019299624 0.0023804195 0.022649635
000010 8d 0b 9c 3d ee 4c 2d bd 00 a8 a7 39 0b 83 7d 3d
       0.07619391 -0.042309694 0.00031977892 0.06189255
000020 17 40 0a 3d 80 39 24 bb c1 59 c4 bc 0a 33 94 bd
       0.033752527 -0.0025058687 -0.02396858 -0.072362974
000030 52 76 88 bd b0 b5 fe ba 1c bd 6a bd 5a bd d9 3d
       -0.06663193 -0.0019432809 -0.057309255 0.10631819
000040 7d 71 ac 3d 69 f5 c6 bc dd 9f 9f 3c 9b d3 27 bd
       0.08420084 -0.024286943 0.019485408 -0.040973287
000050 91 ac 96 3c 36 b0 13 3e 32 c2 61 3d 2c 67 00 3e
       0.018392833 0.14422688 0.05511684 0.12539357
000060 f2 90 bb 3d 52 5d d2 bd d2 c8 ce bc fe 4b ea 3c
       0.091585055 -0.10271706 -0.025242243 0.028600689
000070 10 33 b1 3a 8e f0 a6 3d ba 80 bd bc 70 0f a6 bb
       0.0013519246 0.08151351 -0.02313267 -0.0050677583
000080 af c8 6c bc 8e b5 af bc fa c6 b5 3c 3c d4 d5 bd
       -0.014452144 -0.021448877 0.022189606 -0.10440871
000090 16 4b 68 3d 46 b2 f6 3d f8 49 9d 3d 57 97 27 3d
       0.056712233 0.12045722 0.07680124 0.040915813
0000a0 22 fa 0d bd b6 0e 04 be 92 4b d0 bd 16 2d f1 3c
       -0.034662373 -0.12896237 -0.10170664 0.029440444
0000b0 b7 bd 8d 3d 86 bd dc bc 87 b4 54 bd a1 15 c5 3d
       0.06920951 -0.02694584 -0.051929977 0.09623266
0000c0 37 19 13 3e 38 d2 62 3d 76 6f c9 3c 8e 3d bb 3d
       0.14365087 0.05537626 0.024589282 0.091426
0000d0 24 46 0d 3e af 8d 1c 3d c8 c4 7a bb e0 65 83 3a
       0.13796288 0.038221058 -0.0038264263 0.0010024868
0000e0 90 c5 42 be d8 90 06 3b 2f 2f cd 3d 18 bf f2 bc
       -0.19020677 0.002053311 0.10018765 -0.029632136
0000f0 30 5e e0 3c 28 5f 17 bd 01 86 93 3d fc 13 34 bc
       0.027388662 -0.036955982 0.072032936 -0.010991093
000100 fe 76 f1 bc 55 24 06 bd 1a fe 87 3c e7 06 b4 3c
       -0.029475685 -0.032749493 0.016600657 0.021975948
000110 82 cc 2d 3c 2e 57 53 bd 41 9f c0 bd b3 b5 ca bc
       0.0106078405 -0.051596813 -0.09405375 -0.024744844
000120 84 41 23 3b 28 1b 4d 3d ac 90 8c 3d 98 1c 14 3d
       0.0024910877 0.050074726 0.068635315 0.03616008
000130 1a 3a e8 3d 70 b8 4e bc 5f be 37 bd 00 14 89 3c
       0.11339207 -0.0126172155 -0.044859286 0.01673317
000140 31 55 56 bd 7e 0c 93 bd ea f7 92 3c 63 40 b1 3d
       -0.05232734 -0.07180117 0.01794048 0.08654859
000150 c2 6e c8 3d 80 5b b8 b9 b7 44 dc 3d 54 84 ae bc
       0.097867504 -0.00035163388 0.10755294 -0.021303333
000160 eb a2 84 bc 9e 81 1d 3e b2 a7 ca 3a 38 73 50 bc
       -0.016190967 0.15381476 0.0015461354 -0.012722783
000170 e4 08 cf 3c 21 f2 7a bd b4 f1 0b bd b6 1f b6 bc
       0.025272794 -0.06126607 -0.034166053 -0.022231918
000180 00 cf 7e bd b4 81 92 bd 5a 6e 7b bd e0 96 d7 3c
       -0.06220913 -0.07153645 -0.061384536 0.02631706
000190 d3 d4 66 3d 8b 17 9d bd 8e f9 fe 3c 6c 08 20 bd
       0.05635531 -0.07670506 0.031124856 -0.03907053
0001a0 f4 45 99 3d 8f 73 60 3d 70 44 6e bb 70 22 20 bd
       0.074840456 0.054797705 -0.003635671 -0.039095342
0001b0 35 fe 5e 3c 40 66 ff b9 f4 8b 9b 3d ad 99 04 bd
       0.013610412 -0.00048713572 0.07595053 -0.03237312
0001c0 fa 2a c9 bd 0f 12 c5 3b 62 b7 96 bd 3a a2 13 bd
       -0.0982265 0.0060141156 -0.07359196 -0.036043383
0001d0 e4 a1 11 bd b3 ed a9 bd 9a e6 31 3d 4e ee 9e 3d
       -0.03555478 -0.08297291 0.04343281 0.07760297
0001e0 f1 ec 0b be d1 7e 6d 3d be 67 36 3d 2f 02 a6 bc
       -0.13664605 0.05798227 0.04453253 -0.020264713
0001f0 a2 0f c5 bb fb 8e 11 bd 00 3c 62 3d 42 fe 18 bd
       -0.0060138265 -0.035536747 0.055233 -0.037351854
000200 74 a6 13 bd 54 5a 0f 3c 0a fc 56 bd a6 bf e1 bb
       -0.036047414 0.008749563 -0.052486457 -0.0068893014
000210 4c ee e1 bd e0 f8 a9 ba 70 00 7f 3b 30 01 44 bb
       -0.1103178 -0.0012967847 0.0038910173 -0.0029907934
000220 4e f3 30 be 3c 97 95 3d f1 70 9e 3d 53 8d e1 3c
       -0.17280313 0.07304236 0.077363856 0.027533209
000230 9e 8e 80 bd 2b a1 87 3d 7e 7e 6c 3d 62 14 65 be
       -0.06277202 0.06622537 0.05773782 -0.22371057

conv2.lin.weight f4 [1, 16]
000000 52 70 ac bd 2e 52 25 bc de 00 80 bd 5f c3 48 3c
       -0.08419861 -0.010090394 -0.062501654 0.012253611
000010 3c 18 2a 3e 8d 86 ec 3d 84 c9 44 3d 0d d5 c6 3d
       0.16610807 0.11549101 0.048043743 0.09708605
000020 e6 7c eb bc 42 4a bc 3c a2 1a 97 3d e1 77 c7 bd
       -0.02874608 0.022984628 0.07378127 -0.09739662
000030 f6 b0 89 3c 50 17 b3 3d 5d 32 ab 3d 3a 52 2f 3d
       0.016808014 0.08744681 0.083592154 0.042803027
