LSTM/global_lstm.pt (torch, 76656 bytes, 5 tensors)

lstm.weight_ih_l0 f4 [256, 6]
-0.056485157 0.09083043 0.09725949 0.027988708 0.023077358 0.1002721 -0.031832673 -0.004785031
-0.04956182 -0.007065582 -0.012027802 -0.0088616535 0.00022929088 0.06415357 0.03282462 -0.025088843
-0.021678466 0.056617957 0.08024864 -0.0008777745 0.061320864 -0.040023 0.06464713 0.043346636
0.059161227 0.038081277 0.05421586 0.09460357 0.029710252 -0.014693061 0.053266905 0.05855114
0.060796946 -0.0016125723 0.015691245 0.020541107 0.0785525 0.0042886734 0.01671006 -0.03661861
-0.047916364 0.01028841 0.031365346 0.088857174 0.057071112 0.026923839 -0.03350439 0.057383418
-0.023728782 0.06002763 0.025453344 -0.018457675 0.0076066107 -0.049340934 0.05768161 0.043842424
-0.0040305452 -0.01253503 0.07753316 0.015700899 0.03396652 0.033129968 0.036346685 -0.010422972
-0.01176166 -0.08235718 0.073719636 0.03521651 0.062753886 0.005182213 0.01993652 -0.048416637
0.009234635 -0.021482196 0.04542792 0.05710601 0.063610174 0.008438675 0.12932962 0.07605098
0.0028276085 -0.045865107 0.037229072 0.034996435 -0.031239882 0.033094596 0.051982544 0.027774904
-0.017922144 -0.026921496 0.04340873 0.06361943 0.0018214047 -0.0033875748 -0.06192308 -0.03693257
0.040380638 0.054038566 0.04910726 0.01583809 0.01848968 -0.022384923 0.034192182 0.043952055
0.04678347 0.08817707 0.027198847 -0.01863151 0.011617502 0.07602288 -0.005114445 0.077513285
-0.03235767 0.043070484 0.051016875 0.05619842 -0.035989303 -0.0033052831 0.101939104 0.04787417
0.019062001 -0.013157411 -0.0015576273 -0.01062195 -0.023811903 0.047881685 0.07992699 -0.034174554
-0.094220504 -0.028759176 -0.0046376274 0.054941993 0.12319281 0.03911021 0.050861496 -0.0011079267
0.009486819 0.08142941 0.011246434 0.002404368 -0.0061649913 0.02597941 -0.05384333 0.049447604
7.9963356e-05 -0.046072762 -0.0009074062 0.03147044 0.046702314 0.07727586 -0.029851789 0.014242497
-0.022646656 -0.013932186 -0.015443238 -0.03279226 0.027288672 0.054575384 -0.03772059 0.017389426
0.05696131 -0.034406442 0.026659766 0.05817581 0.040101644 -0.0049515637 0.012492014 -0.04999879
0.060483765 0.03979283 0.040072598 0.03911298 -0.033101507 -0.03324257 0.074387275 0.030196011
0.031433392 -0.004974148 0.03293269 0.04239146 0.020904018 0.01097749 0.03741786 -0.04508843
0.04721741 0.0022144155 0.07537472 0.017142324 -0.07860668 0.019887334 0.0053097853 -0.012008311
-0.03974884 0.084104076 0.051105678 -0.0024434 0.0788811 0.03800464 0.0008532308 0.06195586
0.01994914 -0.0033354938 -0.00956984 0.023934951 -0.02609849 0.02778109 -0.042370535 -0.010212276
0.032699835 0.040831406 0.07738689 0.0023897006 0.0383843 0.01803099 0.039965406 0.01115815
-0.012722498 0.014882356 0.030285072 0.0024675126 0.03233702 -0.010458032 -0.010587704 0.058629476
0.07783117 -0.023496035 -0.042545862 -0.026086504 -0.009795659 0.055253882 0.05597957 -0.04205516
-0.019009719 -0.09534329 -0.015015231 0.029624358 0.00059691665 0.032337897 -0.014434787 0.016230365
-0.018047739 -0.020692015 -0.002129805 -0.019439114 -0.018090736 -0.033858277 0.03969962 0.019443823
0.0109900925 0.05215227 -0.049793284 0.025922677 0.056024205 0.024545178 0.05012109 0.018966531
00000000: fb5c 67bd 4e05 ba3d fc2f c73d 9348 e53c
00000010: ba0c bd3c 755b cd3d fa62 02bd c0cb 9cbb
00000020: 5601 4bbd 6686 e7bb 4210 45bc 7830 11bc
00000030: cd6d 7039 f262 833d 1c73 063d 1e87 cdbc
00000040: 0a97 b1bc 3be8 673d 6659 a43d 731a 66ba
00000050: 962b 7b3d 28ef 23bd b765 843d 3e8c 313d
00000060: 0b53 723d 1dfb 1b3d 7311 5e3d 84bf c13d
00000070: ea62 f33c 2abb 70bc 662e 5a3d 52d3 6f3d
00000080: 3806 793d f35c d3ba ed8a 803c d345 a83c
00000090: 22e0 a03d 0088 8c3b 89e3 883c 65fd 15bd
000000a0: f343 44bd b890 283c f378 003d c0fa b53d
000000b0: 66c3 693d 628f dc3c e63b 09bd e00a 6b3d
000000c0: dd62 c2bc 88df 753d 8883 d03c 8d34 97bc
000000d0: e040 f93b b819 4abd 8d43 6c3d 1d94 333d
000000e0: aa12 84bb ba5f 4dbc b5c9 9e3d 2c9f 803c
000000f0: 7a20 0b3d 4ab3 073d 43e0 143d 1dc5 2abc
00000100: fab3 40bc e2aa a8bd 52fa 963d 303f 103d
00000110: 1c85 803d 8ecf a93b ea51 a33c 8650 46bd
00000120: de4c 173c 6efb afbc a012 3a3d fee7 693d
00000130: 0d46 823d 5e42 0a3c fc6e 043e 9ec0 9b3d
00000140: 664f 393b 0ddd 3bbd 837d 183d 6c58 0f3d
00000150: c8ea ffbc 338e 073d a6eb 543d 3288 e33c
00000160: 76d1 92bc 788a dcbc 5acd 313d e74a 823d
00000170: 33bc ee3a 1302 5ebb 0ea3 7dbd 9b46 17bd
00000180: 2b66 253d 8b57 5d3d b224 493d e2be 813c
00000190: ab77 973c 9660 b7bc 1a0d 0c3d 1207 343d
000001a0: 06a0 3f3d 2e96 b43d 1ed0 de3c 1ca1 98bc
000001b0: 5657 3e3c e2b1 9b3d 1397 a7bb 49bf 9e3d
000001c0: 7a89 04bd ad6a 303d 12f7 503d 5030 663d
000001d0: 8569 13bd 739d 58bb 73c5 d03d b517 443d
000001e0: ea27 9c3c 2e92 57bc 4d29 ccba b007 2ebc
000001f0: 2e11 c3bc 961f 443d c3b0 a33d 9efa 0bbd
00000200: aef6 c0bd 5d98 ebbc 3df7 97bb db0a 613d
00000210: 834c fc3d 0732 203d 2554 503d da37 91ba
00000220: 9a6e 1b3c 76c4 a63d f742 383c 9a92 1d3b
00000230: b203 cabb c6d2 d43c d38a 5cbd 9289 4a3d
00000240: 00b2 a738 cbb6 3cbd 00df 6dba 26e7 003d
00000250: ed4a 3f3d ce42 9e3d bd8b f4bc 5d59 693c
00000260: 7b85 b9bc d343 64bc a305 7dbc 2d51 06bd
00000270: 7e8c df3c 708a 5f3d e880 1abd 4574 8e3c
00000280: 4350 693d c5ed 0cbd 9565 da3c c249 6e3d
00000290: 9f41 243d ba40 a2bb 4eab 4c3c 88cb 4cbd
000002a0: d3bd 773d cefd 223d 2a23 243d ef34 203d
000002b0: 7295 07bd 5c29 08bd 5b58 983d a05d f73c
000002c0: 4dc0 003d 2dfe a2bb 6ee4 063d aba2 2d3d
000002d0: e73e ab3c eeda 333c 7843 193d a5ae 38bd
000002e0: 0b67 413d ba1f 113b 105e 9a3d 0f6e 8c3c
000002f0: 8afc a0bd c3ea a23c b5fd ad3b 82be 44bc
00000300: aecf 22bd c23e ac3d 3054 513d 7321 20bb
00000310: 6a8c a13d c1aa 1b3d 5aab 5f3a 6ec5 7d3d
00000320: 616c a33c 4d98 5abb d1ca 1cbc 3b13 c43c
00000330: 80cc d5bc 2b95 e33c ba8c 2dbd 6451 27bc
00000340: 43f0 053d d53e 273d 057d 9e3d 869c 1c3b
00000350: db38 1d3d bab5 933c c4b2 233d acd0 363c
00000360: 0672 50bc 20d5 733c 6618 f83c feb5 213b
00000370: d373 043d 2a58 2bbc 0d78 2dbc 7625 703d
00000380: f365 9f3d c27a c0bc 9244 2ebd 5db3 d5bc
00000390: f97d 20bc e551 623d d54a 653d 0842 2cbd
000003a0: 45ba 9bbc 5843 c3bd 7202 76bc c8ae f23c
000003b0: 667a 1c3a be74 043d e37f 6cbc 8bf5 843c
000003c0: dad8 93bc 4d82 a9bc 3394 0bbb c73e 9fbc
000003d0: 0633 94bc faae 0abd 129c 223d a748 9f3c
000003e0: ca0f 343c 9e9d 553d 0bf4 4bbd cb5b d43c
000003f0: a379 653d f812 c93c c64b 4d3d b35f 9b3c

lstm.weight_hh_l0 f4 [256, 64]
0.020891543 -0.030266305 0.012395396 -0.039279927 -0.057581197 -0.059853815 0.06878372 0.04350564
0.006953138 0.046549525 -0.045157902 -0.023306303 -0.03220598 -0.0008598596 -0.015584828 0.008329874
-0.049645536 -0.0018873482 -0.03332134 0.022345223 -0.05371468 0.017381713 0.0013269375 0.037577763
-0.041520223 0.004423961 0.034176905 -0.002958417 0.009299486 -0.043184556 -0.025325168 -0.07785511
0.019250153 -0.018155452 0.023819458 -0.06595066 0.013929607 -0.007200858 0.01416708 0.0015063838
0.09067018 0.05605728 -0.024686756 0.029019866 -0.09040499 -0.0029603422 2.982337e-05 0.04415665
0.023533683 0.06397192 -0.023549765 -0.06627083 -0.12835388 -0.03901257 0.0020573616 0.018764706
-0.05829045 -0.020628836 0.00072295964 0.025375148 0.019758387 0.06317818 0.0045190356 -0.04684524
0.026614845 0.064086355 0.013722524 -0.033665873 0.05841585 0.0069035077 0.03798435 -0.01759197
0.014960555 -0.008703868 -0.02819618 0.06733836 0.062360197 0.0020300008 -0.021642096 -0.029510353
-0.05081181 -0.045613658 0.018886456 0.038681656 0.014474789 0.012268643 0.02431684 0.034811784
-0.0041033677 0.052486885 0.03334655 0.050727747 0.025777608 0.060811114 -0.017553184 -0.06817572
0.043675013 0.0034358515 -0.042327423 -0.028403107 0.037941653 -0.02141123 -0.018892992 -0.0926693
0.014721511 0.009408933 -0.02714029 -0.06141861 -0.004733877 -0.028592294 -0.028958593 0.034389414
-0.025731247 -0.03569145 0.0212455 0.003594032 -0.024533486 0.03617064 0.04700174 0.04386491
-0.0015893861 -0.0035529435 0.00622956 -0.03632182 -0.026123825 -0.03224343 0.07263358 -0.025503362
0.03202104 -0.045613386 -0.022505417 0.003954462 0.04673938 -0.035680942 0.0037415847 0.03506411
0.035799496 0.045520842 0.041743126 -0.016203126 0.05645783 0.03137558 0.005333148 0.00083105115
-0.035678644 0.008413404 0.020473713 0.0668901 -0.008296515 -0.031000365 0.009040448 -0.023850648
-0.044080295 0.0014686168 0.019264659 -0.045737635 0.028924596 -0.04142586 -0.027299475 -0.019976072
-0.005581514 -0.053753328 0.014815019 -0.02900448 -0.07438322 -0.032434028 0.03721135 -0.04308408
0.031729046 -0.055903137 0.031151623 -0.042271636 0.046745867 -0.058968216 -0.027468842 -0.055711262
0.05475551 -0.00872745 -0.031346053 0.010958806 0.007546061 0.01972476 0.0025121 -0.09952134
-0.012076128 -0.011826307 0.031104082 0.029571706 0.05360949 -0.042173825 -0.0228157 0.024899079
0.045805104 0.06559916 -0.022273177 0.02396527 -0.013499309 0.005253604 0.015105049 0.008136002
-0.013300571 0.057010747 0.03286781 -0.012188461 0.0016322576 -0.001603382 0.0008368969 -0.05585418
-0.03809958 -0.06128324 0.008474185 -0.04291384 -0.0024547384 0.009421346 -0.040076308 -0.010862828
0.01734081 -0.03360358 -0.0027946648 0.012214223 0.009555301 -0.059559394 0.017450977 -0.0016074635
0.04968401 0.0028427765 0.0436522 0.08048231 -0.008510339 0.047828723 0.06889736 -0.0309456
-0.03554165 -0.02190732 0.047016483 -0.029121956 0.022049438 0.031480532 0.0046437755 -0.027276194
0.0019708977 -0.075495824 -0.028001849 0.030967932 0.009292588 0.009489931 -0.015410809 0.017815802
-0.006526789 -0.024030093 -0.029238164 -0.07883908 0.015652616 -0.016240397 0.022699473 0.0347412
00000000: be24 ab3c 0bf1 f7bc 0f16 4b3c fde3 20bd
00000010: 43da 6bbd 4629 75bd 7bde 8c3d f832 323d
00000020: 26d7 e33b b7aa 3e3d 7ef7 38bd dcec bebc
00000030: 6bea 03bd 3368 61ba 8257 7fbc 067a 083c
00000040: 1e59 4bbd e660 f7ba f57b 08bd 540d b73c
00000050: ed03 5cbd 1864 8e3c a2ec ad3a 24eb 193d
00000060: 1c11 2abd e0f6 903b 15fd 0b3d 00e2 41bb
00000070: df5c 183c 4ae2 30bd ba76 cfbc 8072 9fbd
00000080: 7fb2 9d3c beba 94bc 0621 c33c 2411 87bd
00000090: 0239 643c 2df5 ebbb 0a1d 683c da71 c53a
000000a0: 4ab1 b93d 529c 653d e13b cabc 12bb ed3c
000000b0: 4026 b9bd 4d02 42bb 332d fa37 9add 343d
000000c0: b6c9 c03c b603 833d 70eb c0bc 00b9 87bd
000000d0: 336f 03be a5cb 1fbd cdd4 063b 71b8 993c
000000e0: f8c1 6ebd cefd a8bc 0085 3d3a 8bdf cf3c
000000f0: 57dc a13c 9063 813d 6b14 943b cbe0 3fbd
00000100: 6007 da3c b53f 833d 70d4 603c 3ae5 09bd
00000110: 7545 6f3d d236 e23b 7a95 1b3d 091d 90bc
00000120: 1e1d 753c ab9a 0ebc adfb e6bc b2e8 893d
00000130: 686d 7f3d c309 053b c44a b1bc b2bf f1bc
00000140: 0b20 50bd 63d5 3abd c5b7 9a3c a870 1e3d
00000150: aa27 6d3c 6b02 493c 1c34 c73c cd96 0e3d
00000160: 8b75 86bb 7dfc 563d 6496 083d e6c7 4f3d
00000170: 902b d33c 1315 793d b2cb 8fbc b69f 8bbd
00000180: 92e4 323d 062c 613b 855f 2dbd a2ad e8bc
00000190: b568 1b3d 9b66 afbc 7ac5 9abc 67c9 bdbd
000001a0: 7e32 713c ed27 1a3c 5055 debc 1592 7bbd
000001b0: a31e 9bbb 633a eabc 923a edbc eadb 0c3d
000001c0: 56ca d2bc 3331 12bd 0b0b ae3c da89 6b3b
000001d0: 73fa c8bc aa27 143d e684 403d b1ab 333d
000001e0: f352 d0ba 80d8 68bb 5621 cc3b 30c6 14bd
000001f0: a201 d6bc b011 04bd eac0 943d 6dec d0bc
00000200: 7e28 033d 1ad5 3abd 485d b8bc 6e94 813b
00000210: cb71 3f3d 2e26 12bd 6035 753b 629f 0f3d
00000220: 7ea2 123d 1074 3a3d d7fa 2a3d 6bbc 84bc
00000230: 5340 673d ae83 003d b0c1 ae3b e6da 593a
00000240: c523 12bd 60d8 093c 7db8 a73c adfd 883d
00000250: 1bee 07bc 7af4 fdbc 631e 143c 6f62 c3bc
00000260: 8a8d 34bd 9a7e c03a ebd0 9d3c 6357 3bbd
00000270: 46f3 ec3c 2aae 29bd 26a3 dfbc dca4 a3bc
00000280: 22e5 b6bb 732c 5cbd b2ba 723c ce9a edbc
00000290: 3b56 98bd 8bd9 04bd ee6a 183d ef78 30bd
000002a0: 51f6 013d b0fa 64bd b031 ff3c 0625 2dbd
000002b0: 9878 3f3d a888 71bd 5606 e1bc 7e31 64bd
000002c0: 5047 603d 94fd 0ebc b864 00bd 908c 333c
000002d0: f344 f73b d295 a13c 0ba2 243b d8d1 cbbd
000002e0: f4da 45bc 20c3 41bc fdcd fe3c 5d40 f23c
000002f0: a095 5b3d 76be 2cbd fee7 babc 27f9 cb3c
00000300: 229e 3b3d da58 863d 3d76 b6bc d052 c43c
00000310: 352c 5dbc 6d26 ac3b 2b7b 773c de4c 053c
00000320: a3ea 59bc 1a84 693d 66a0 063d 1cb2 47bc
00000330: 7af1 d53a 9328 d2ba 3363 5b3a 5ac7 64bd
00000340: 4e0e 1cbd 2204 7bbd 4fd7 0a3c 6cc6 2fbd
00000350: addf 20bb fd5b 1a3c 0e27 24bd 01fa 31bc
00000360: 500e 8e3c e8a3 09bd b226 37bb 2a1e 483c
00000370: d68d 1c3c 8df4 73bd 5af5 8e3c 86b1 d2ba
00000380: 7681 4b3d e04d 3a3b a6cc 323d e9d3 a43d
00000390: f36e 0bbc 0de8 433d 0f1a 8d3d a081 fdbc
000003a0: 1f94 11bd fb76 b3bc 5b94 403d 2b91 eebc
000003b0: 06a1 b43c bbf1 003d d02a 983b 5372 dfbc
000003c0: 2d2a 013b 8e9d 9abd 2264 e5bc 76b0 fd3c
000003d0: f03f 183c a87b 1b3c 9e7d 7cbc 72f2 913c
000003e0: adde d5bb c2da c4bc e084 efbc 6276 a1bd
000003f0: ea39 803c 950a 85bc 3ff4 b93c ca4c 0e3d

lstm.bias_ih_l0 f4 [256]
0.020961653 -0.0050356374 -0.0055304347 -0.023148285 0.04281421 0.020309476 -0.060575794 0.0024939268
-0.0062228595 0.031844113 0.036369108 0.10629624 0.021943612 0.0012035102 0.024344543 0.056772757
0.033086807 0.018377963 0.035215136 0.024215532 -0.025614029 0.025635093 0.04639026 -0.03249667
0.01051479 -0.025046876 0.011418484 0.04823109 0.020449296 0.028383467 0.06755234 0.013346588
0.011066812 0.045984056 0.027119527 -0.050029166 0.035236653 0.0013160125 0.01844074 0.06976477
0.018190663 0.054516207 0.07880833 0.02884678 -0.019319668 -0.002219197 0.07625347 -0.09339479
0.04455166 0.007229928 0.07329745 0.028626194 0.020989094 0.02152078 -0.010182609 -0.034852423
0.028567582 0.012874693 0.04533588 0.06815022 -0.007117633 0.041559443 0.020567166 0.087999076
-0.024606178 -0.046890683 0.033296145 -0.0044386475 0.011669207 -0.028088683 -0.034050833 0.06950782
-0.056169212 0.057185553 -0.014715637 -0.025806442 0.026077162 0.036754586 -0.022485174 0.040543832
0.015307592 -0.035475425 -0.0012332946 -0.03303148 -0.013692191 -0.04245866 0.017443169 0.028674226
0.044454344 -0.032175593 0.017486325 0.038277958 0.005377361 0.03832266 0.035642125 0.0062019266
0.055843044 -0.065393575 -0.05200268 0.032771576 0.048756503 0.009934386 -0.034820132 0.03996579
-0.008625236 -0.030335542 0.026826356 0.06581697 -0.06494026 -0.054096114 -0.0024092018 -0.049124256
0.051426418 0.022800747 0.012622096 -0.031228662 0.019313594 -0.01941996 0.031786345 0.017250309
0.030700495 -0.039706696 0.02917021 -0.012055723 0.039673306 0.024624811 -0.04498334 0.0093226535
-0.019849509 0.031016588 0.0350864 0.03739939 -0.007686436 -0.017356606 0.003683973 0.021890152
0.0069067418 0.05871754 -0.021469845 -0.01713249 -0.010343087 0.013104277 0.033409603 0.00013172626
0.05753814 -0.010588105 0.017730165 -0.0015901111 -0.01600503 0.043989334 0.040296055 0.024274025
0.024970565 0.030351752 -0.03749866 -0.0069086934 -0.03623098 -0.05248927 0.05319841 0.05838483
-0.008523056 -0.011780466 -0.0034304813 0.046032704 -0.006740543 0.017445937 0.015525552 0.060008645
0.06834229 0.060712375 0.0012249097 0.039743576 -0.019495076 -0.003579734 0.00555048 -0.05842836
-0.004977952 -0.02987721 0.02606028 0.014619118 0.0068054027 0.004953526 0.02255497 0.057130713
-0.027597178 0.013662037 0.03582157 -0.020123066 0.03877432 0.023701478 -0.023891935 0.016182527
0.06654191 -0.00053031615 0.08930024 0.040424734 0.048967544 0.0042973356 -0.006739679 -0.026101446
0.04738122 0.060257502 0.068377234 0.0049022147 0.018348996 -0.012008141 -0.06325066 -0.007329491
0.007876833 0.018754372 0.03984947 0.056150306 -0.01144235 0.074369624 -0.020514203 0.07405191
0.013709212 0.06155307 -0.031740885 -0.0018335299 0.026021209 0.01178802 -0.016226161 0.034338042
0.029520784 0.033754684 0.06209706 -0.05765284 -0.0033328594 0.02696352 0.036845982 0.099120714
0.019360594 0.01973079 0.041325696 0.014431524 0.05383662 -0.04320001 -0.045603238 0.016338509
0.034527604 0.020631691 0.02098308 -0.09368968 0.03787897 0.014735617 0.058955092 0.035496864
0.035613723 0.014256085 0.013522774 0.016719233 -0.046399146 -0.0077724443 0.006159134 0.03600829
00000000: c6b7 ab3c fd01 a5bb a638 b5bb 79a1 bdbc
00000010: f45d 2f3d 0f60 a63c 531e 78bd 2671 233b
00000020: 21e9 cbbb f96e 023d c6f7 143d d8b1 d93d
00000030: 17c3 b33c 1abf 9d3a 356e c73c 8d8a 683d
00000040: 0886 073d 628d 963c bf3d 103d a75f c63c
00000050: 83d4 d1bc b000 d23c b703 3e3d 3a1b 05bd
00000060: 3a46 2c3c 1b2f cdbc 9814 3b3c f78d 453d
00000070: 4885 a73c 7284 e83c e258 8a3d a6ab 5a3c
00000080: 9351 353c c759 3c3d c529 de3c 62eb 4cbd
00000090: 4f54 103d 0d7e ac3a 0911 973c d5e0 8e3d
000000a0: 9604 953c 634c 5f3d 4366 a13d 1550 ec3c
000000b0: 4844 9ebc f36f 11bb c72a 9c3d c545 bfbd
000000c0: cd7b 363d 08e9 ec3b f91c 963d 7b81 ea3c
000000d0: 52f1 ab3c 594c b03c f5d4 26bc 6ac1 0ebd
000000e0: 9006 ea3c 60f0 523c 1eb2 393d 5892 8b3d
000000f0: 083b e9bb 3c3a 2a3d 797c a83c dc38 b43d
00000100: e592 c9bc 7210 40bd 8a61 083d 1372 91bb
00000110: 3430 3f3c 3d1a e6bc e378 0bbd 1e5a 8e3d
00000120: b011 66bd 663b 6a3d db19 71bc 0868 d3bc
00000130: c69f d53c fa8b 163d d432 b8bc 4a11 263d
00000140: b2cc 7a3c ae4e 11bd 80a6 a1ba 044c 07bd
00000150: 3655 60bc 22e9 2dbd fae4 8e3c 36e6 ea3c
00000160: c215 363d 8eca 03bd 7b3f 8f3c 59c9 1c3d
00000170: 9334 b03b 39f8 1c3d 7afd 113d 8839 cb3b
00000180: adbb 643d 11ed 85bd c300 55bd 7d3b 063d
00000190: e6b4 473d d6c3 223c 8e9f 0ebd 2bb3 233d
000001a0: dd50 0dbc 3e82 f8bc f2c2 db3c 0ccb 863d
000001b0: 66ff 84bd e393 5dbd b3e3 1dbb 8436 49bd
000001c0: 82a4 523d a2c8 ba3c e8cc 4e3c 40d3 ffbc
000001d0: 8b37 9e3c 9c16 9fbc 6632 023d 8550 8d3c
000001e0: 9b7f fb3c 7da3 22bd 5df6 ee3c 5e85 45bc
000001f0: 7a80 223d f9b9 c93c 7340 38bd 0bbe 183c
00000200: 709b a2bc 8016 fe3c c2b6 0f3d 1a30 193d
00000210: 80de fbbb 712f 8ebc d06e 713b fa52 b33c
00000220: f351 e23b ce81 703d 87e1 afbc 7059 8cbc
00000230: 0d76 29bc 52b3 563c 82d8 083d 0020 0a39
00000240: 1dad 6b3d bb79 2dbc da3e 913c 466b d0ba
00000250: fb1c 83bc 292e 343d 7a0d 253d 52da c63c
00000260: 128f cc3c 3da4 f83c 3298 19bd 5262 e2bb
00000270: f066 14bd fdfe 56bd 93e6 593d ee24 6f3d
00000280: 4aa4 0bbc db02 41bc edd1 60bb ca8c 3c3d
00000290: c6df dcbb c8ea 8e3c e35e 7e3c a0cb 753d
000002a0: 0bf7 8b3d 8aad 783d 268d a03a 29ca 223d
000002b0: 23b4 9fbc f899 6abb cde0 b53b 9352 6fbd
000002c0: 171e a3bb 0dc1 f4bc 5e7c d53c 0685 6f3c
000002d0: dbff de3b 3051 a23b 33c5 b83c e501 6a3d
000002e0: 7a13 e2bc bdd6 5f3c a3b9 123d 21d9 a4bc
000002f0: d2d1 1e3d 9a29 c23c 05b9 c3bc 3891 843c
00000300: 2047 883d ea04 0bba 0be3 b63d 6894 253d
00000310: 3192 483d aad0 8c3b 86d8 dcbb b3d2 d5bc
00000320: cf12 423d 92d0 763d 5d09 8c3d c2a2 a03b
00000330: a250 963c cbbd 44bc 9089 81bd 3a2c f0bb
00000340: d50d 013c c5a2 993c 3339 233d ddfd 653d
00000350: b278 3bbc 1a4f 983d 670d a8bc 87a8 973d
00000360: 9a9c 603c 121f 7c3d bb02 02bd 0e53 f0ba
00000370: 6e2a d53c 8a22 413c baec 84bc 0ca6 0c3d
00000380: 92d5 f13c 5a42 0a3d 7d59 7e3d 6225 6cbd
00000390: 1a6c 5abb 9ae2 dc3c d0eb 163d cdff ca3d
000003a0: 1c9a 9e3c 77a2 a13c 2245 293d 3372 6c3c
000003b0: ca83 5c3d 7ef2 30bd 76ca 3abd 56d8 853c
000003c0: d16c 0d3d cb03 a93c b5e4 ab3c 60e0 bfbd
000003d0: fb26 1b3d a86d 713c e57a 713d 2965 113d
000003e0: b2df 113d 5b92 693c a08e 5d3c c6f6 883c
000003f0: 080d 3ebd fdaf febb 90d2 c93b 6e7d 133d

lstm.bias_hh_l0 f4 [256]
0.033594597 -0.034311205 0.023867182 -0.0017512247 0.016219538 0.06867563 0.03439356 -0.03932876
0.10414557 -0.0073716 -0.0199464 -0.030891916 0.061963487 0.01801954 -0.056042027 -0.023816403
-0.018533615 -0.026918191 0.03871561 0.05283333 0.05191924 0.04019768 -0.06643864 -0.010026783
0.0005589888 -0.0019532428 0.015255749 0.0034724264 0.059723187 0.060588844 0.03807547 -0.0583704
0.032746125 0.05282549 0.065012015 -0.04575611 -0.04202284 0.093318544 -0.03428372 0.0359962
0.046922665 -0.009853787 0.032587893 0.00040636453 0.061578594 0.02818406 0.067987986 -0.0075534047
0.07907834 0.010155844 0.023213938 0.016581412 0.046473674 0.015287128 0.00307039 0.0695918
0.042322855 -0.0031261295 -0.006188446 0.007763299 0.028007071 0.011290268 0.01850731 0.019609258
0.008567777 0.047770392 0.071842335 0.057524204 0.04193963 -0.0067931623 0.036497574 0.03259436
0.021202225 -0.041181307 -0.006981255 -0.033134628 0.003364463 0.015937757 -0.051316947 -0.0121317385
0.003590151 -0.048159588 -0.040923804 -0.029781988 0.01997682 0.051524222 -0.048957847 -0.048436612
0.080343984 -0.039513804 0.025621587 -0.01156036 -0.018642113 0.020794759 -0.013070536 0.019471604
0.07933159 -0.05321583 -0.013444185 -0.022233894 0.01184226 -0.0535432 -0.0014590963 0.0048278025
0.022939097 0.0057604103 -0.0072536194 0.017930632 -0.03020594 -0.0068577356 0.017355207 -0.029648006
-0.012334436 0.0071151317 0.035655815 0.036231704 0.00613229 0.0418496 -0.020683812 0.01377334
0.04571153 -0.045286976 -0.0043475316 0.021751696 -0.015481325 0.050753374 0.01908781 0.058244567
0.0029809512 0.03938905 -0.06580477 -0.031787552 -0.023373406 -0.06168449 0.029846739 0.019682053
0.035557378 0.0453074 0.042219408 0.011923249 -0.022323571 0.011659284 -0.028550943 0.055183798
-0.05263535 -0.020991752 -0.076376505 -0.017864464 -0.027409893 -0.00044070854 0.030835003 0.010381451
0.010550435 0.0013194263 0.02503109 -0.0011187404 -0.00437091 0.012870273 -0.015243175 -0.05278783
0.0578795 0.061327398 0.027212312 -0.0018694748 -0.046849795 0.010943433 -0.011307051 -0.024581116
0.056970038 0.040971626 0.04790681 0.022579247 0.0106639685 -0.0029626747 0.008264555 0.004976998
0.040640984 0.006488985 -0.042516105 0.026279217 -0.042299587 0.007742534 0.07649579 -0.007886646
-0.042627923 0.037601467 0.02319467 0.051454864 0.013124329 0.033606634 0.047164302 -0.031139325
0.0026854933 0.00851683 0.018511364 0.043907966 0.010823448 0.064931646 0.03985711 0.039205994
0.052761354 0.019232763 0.05929335 0.07633249 0.0051618665 0.014969781 0.030017752 0.037706535
-0.03042028 0.02543496 0.03591113 -0.0017937847 0.0195736 0.048841324 0.021808224 -0.024447545
0.04013554 -0.02171034 0.063579775 0.045411937 -0.028347135 -0.007376843 0.0654691 -0.00532058
0.022466386 0.045446478 0.012856352 -0.01974961 -0.01975303 0.055404402 -0.02407559 0.083088085
-0.04480173 0.04951731 0.057110846 0.0022057958 -0.016163329 -0.0047778413 0.046645742 0.022901095
-0.07134483 0.043546207 0.057661045 -0.016109724 -0.02914967 0.031662278 0.05723666 0.037146762
0.010313556 -0.0017900452 0.0072102295 0.02967466 0.012022609 -0.014380813 0.022398224 0.0031178712
00000000: 7d9a 093d e889 0cbd 1c85 c33c 5a89 e5ba
00000010: d6de 843c cfa5 8c3d 43e0 0c3d 3217 21bd
00000020: 464a d53d 768d f1bb a266 a3bc 0b11 fdbc
00000030: 6dcd 7d3d b79d 933c 538c 65bd 9e1a c3bc
00000040: cfd3 97bc 8a83 dcbc 4294 1e3d c367 583d
00000050: 45a9 543d 53a6 243d fb10 88bd 6047 24bc
00000060: 1a89 123a fa01 00bb 40f3 793c a691 633b
00000070: 4da0 743d 022c 783d 06f5 1b3d cd15 6fbd
00000080: cd20 063d 8a5f 583d 0525 853d c26a 3bbd
00000090: 2420 2cbd cb1d bf3d 166d 0cbd c070 133d
000000a0: fb31 403d c771 21bc e27a 053d 530d d539
000000b0: d639 7c3d 42e2 e63c 493d 8b3d 8d82 f7bb
000000c0: d3f3 a13d b264 263c 282b be3c bed5 873c
000000d0: 2e5b 3e3d dd76 7a3c 9938 493b 2586 8e3d
000000e0: bb5a 2d3d c0df 4cbb 73c8 cabb 4663 fe3b
000000f0: 166f e53c d1fa 383c a49c 973c 98a3 a03c
00000100: dd5f 0c3c e3aa 433d 1322 933d 809e 6b3d
00000110: e4c8 2b3d 2d99 debb 7b7e 153d aa81 053d
00000120: 4ab0 ad3c bbad 28bd 03c3 e4bb 2db8 07bd
00000130: 537e 5c3b e68f 823c b831 52bd 33c4 46bc
00000140: bd48 6b3b fd42 45bd b89f 27bd 5bf9 f3bc
00000150: 6ea6 a33c 100b 533d 0688 48bd 7865 46bd
00000160: 638b a43d 3ad9 21bd 5de4 d13c aa67 3dbc
00000170: 58b7 98bc c559 aa3c cd25 56bc ea82 9f3c
00000180: 9a78 a23d d8f8 59bd 0045 5cbc db23 b6bc
00000190: 0a06 423c 1d50 5bbd 263f bfba 8b32 9e3b
000001a0: c6ea bb3c d3c1 bc3b c5af edbb 43e3 923c
000001b0: 7372 f7bc dbb6 e0bb 822c 8e3c 60e0 f2bc
000001c0: 6016 4abc 0d26 e93b d50b 123d b267 143d
000001d0: 60f1 c83b 7c6a 2b3d 1971 a9bc 93a9 613c
000001e0: 033c 3b3d d67e 39bd bd75 8ebb 9d30 b23c
000001f0: 62a5 7dbc c5e2 4f3d 0a5e 9c3c db91 6e3d
00000200: 105c 433b 6a56 213d a7c4 86bd aa33 02bd
00000210: 9679 bfbc e0a8 7cbd 2681 f43c 423c a13c
00000220: 9da4 113d 4194 393d 42ee 2c3d bb59 433c
00000230: ecdf b6bc 9506 3f3c abe3 e9bc 6808 623d
00000240: 2a98 57bd e5f6 abbc 496b 9cbd 7f58 92bc
00000250: b68a e0bc e60e e7b9 b099 fc3c f616 2a3c
00000260: bbdb 2c3c 9af0 ac3a 000e cd3c b3a2 92ba
00000270: da39 8fbb d6dd 523c 83be 79bc 0d38 58bd
00000280: 0e13 6d3d 7032 7b3d 5bec de3c 2a09 f5ba
00000290: 92e5 3fbd 164c 333c 3641 39bc 565e c9bc
000002a0: 6a59 693d ddd1 273d ee39 443d 1df8 b83c
000002b0: edb7 2e3c 6f29 42bb 0e68 073c 1616 a33b
000002c0: 2977 263d 8da1 d43b 5e25 2ebd 8347 d73c
000002d0: 5542 2dbd 15b5 fd3b d3a9 9c3d fe36 01bc
000002e0: 9e9a 2ebd ff03 1a3d c002 be3c 56c2 523d
000002f0: 6d07 573c 1ca7 093d 5b2f 413d e617 ffbc
00000300: 1aff 2f3b 2d8a 0b3c 25a5 973c d7d8 333d
00000310: d554 313c e2fa 843d 3541 233d 7796 203d
00000320: 4a1c 583d 078e 9d3c 95dd 723d 3554 9c3d
00000330: e024 a93b d043 753c cae7 f53c 2b72 1a3d
00000340: f333 f9bc fa5c d03c 8d17 133d 6d1d ebba
00000350: d058 a03c d70d 483d 29a7 b23c 3846 c8bc
00000360: 2a65 243d e2d9 b1bc 1d36 823d de01 3a3d
00000370: 4038 e8bc 72b9 f1bb aa14 863d 4358 aebb
00000380: 6d0b b83c 1626 3a3d 73a3 523c efc9 a1bc
00000390: 1bd1 a1bc baef 623d 2c3a c5bc 162a aa3d
000003a0: 0582 37bd aad2 4a3d 10ed 693d 1d8f 103b
000003b0: f568 84bc 708f 9cbb 9b0f 3f3d 149b bb3c
000003c0: 3d1d 92bd 825d 323d fd2d 6c3d 8af8 83bc
000003d0: 4acb eebc 4eb0 013d fd70 6a3d 3427 183d
000003e0: 30fa 283c f39f eaba ca43 ec3b 4618 f33c
000003f0: 7afa 443c 809d 6bbc 7b7c b73c 3355 4c3b

fc.weight f4 [1, 64]
0.05790602 -0.039820142 0.03318926 -0.025177877 -0.018648878 -0.043048322 0.0120077 0.08237012
0.08332322 0.039511453 -0.012425383 0.06459375 -0.023247382 0.04708753 -0.033802006 0.0505717
-0.05749315 0.018543372 -0.0040102703 -0.0711044 -0.04365758 0.01246507 0.073235 -0.019244898
-0.020385752 -0.00979269 -0.057216126 0.038511705 0.0033155824 -0.073636584 0.05276419 -0.035453793
0.065193065 0.01047652 0.04669884 0.01960103 0.024048124 0.08815366 0.028508585 0.054053437
0.012307333 0.042548265 0.047005914 -0.06460949 0.009589014 -0.02367599 0.04030692 -0.0056950273
-0.012680432 0.012810332 -0.025934985 -0.015724396 -0.0003416896 0.005038348 -0.022755641 -0.028487194
-0.06305932 -0.05419291 -0.016448166 -0.0118559105 0.04119756 0.069148585 0.07042486 0.02645674
00000000: dd2e 6d3d 721a 23bd 76f1 073d d641 cebc
00000010: 88c5 98bc 7053 30bd f2bb 443c aab1 a83d
00000020: 5da5 aa3d c3d6 213d d593 4bbc ba49 843d
00000030: 4b71 bebc dbde 403d f973 0abd 4524 4f3d
00000040: f07d 6bbd 45e8 973c 9668 83bb 2f9f 91bd
00000050: 4ad2 32bd 4b3a 4c3c 3bfc 953d 7aa7 9dbc
00000060: 0500 a7bc 8571 20bc 755b 6abd 73be 1d3d
00000070: 3e4a 593b c7ce 96bd 431f 583d ff37 11bd
00000080: f183 853d b6a5 2b3c 4847 3f3d 5792 a03c
00000090: 9200 c53c e889 b43d d68a e93c 2367 5d3d
000000a0: b2a4 493c 1747 2e3d 4689 403d fb51 84bd
000000b0: 3d1b 1d3c 26f4 c1bc de18 253d 5a9d babb
000000c0: 96c1 4fbc 6de2 513c 9b75 d4bc 73d0 80bc
000000d0: cd24 b3b9 ba18 a53b 0a6a babc fa5d e9bc
000000e0: 3f25 81bd 63f9 5dbd 4ebe 86bc 4b3f 42bc
000000f0: c6be 283d c69d 8d3d e93a 903d cebb d83c
