LSTM/local_lstm_models.pt (torch, 384080 bytes, 25 tensors)

weight_ih_l0 f4 [256, 6]
000000 e9 d4 d1 bc 1c 1f 3d 3d f9 72 7b bd b1 72 76 3d
       -0.025614219 0.046172246 -0.061388943 0.060167972
000010 28 39 a0 3c cc ea dc 3d 06 e6 84 3d 93 fb a6 3c
       0.019558504 0.107869714 0.06489186 0.020383632
000020 24 6b e6 bd 2d 98 3b bb 47 fc 49 bd da 5c d2 3c
       -0.11250904 -0.002862464 -0.049312856 0.02567904
000030 a3 84 06 bd 1b 4d c0 3d 36 f5 15 bd f0 ba 84 bd
       -0.032841336 0.09389707 -0.036610804 -0.06480968
000040 d6 d8 a2 bd 92 e9 7d 3d ff 3c 16 3d 6e 61 fc 3d
       -0.079515144 0.061990328 0.036679264 0.12323271
000050 2b af 73 3d bb b9 79 bd d3 ac c8 3d b5 fb fb 3d
       0.059493225 -0.060968142 0.097985886 0.12303869
000060 17 5e b5 bd 02 cf ff bd 73 36 89 3d 8e 90 19 3d
       -0.08855837 -0.124906555 0.066998385 0.037491374
000070 51 cb 30 bc 69 32 9f bd bb f4 9d 3c ba 3e f8 3d
       -0.010790662 -0.07773287 0.019281736 0.12121339
000080 eb 29 67 3d 78 83 6a 3a fe cb 17 3e f3 20 0e 3c
       0.05643646 0.0008945982 0.1482391 0.008674848
000090 0a 66 08 3d ce 48 1e 3d 84 0d 80 3d 26 10 a9 bd
       0.033300437 0.03864365 0.06252578 -0.08255033
0000a0 1c 51 00 bd 54 6e 82 3d a4 26 94 bd 39 d5 cd bb
       -0.031327352 0.063687 -0.072339326 -0.0062815216
0000b0 33 05 98 3d df 12 e2 bd 4f 5b 01 be 47 54 61 bd
       0.07422867 -0.110387556 -0.12632488 -0.055012014
0000c0 39 7b cb bc d6 ad af 3d 5a 6f c7 3d bd e4 b7 bd
       -0.02483903 0.085780784 0.097380355 -0.08979175
0000d0 4d 5b f3 bc 8c fa bd bd e7 1e d8 bc f4 1d d6 3d
       -0.029706622 -0.09276304 -0.026381923 0.10454932
0000e0 db e4 a8 3c a6 34 d3 3d 3e 34 00 3d 2c cf 58 bd
       0.02061694 0.10312776 0.031299822 -0.05293195
0000f0 f9 ca 9f bc 25 5c 39 3d a7 0e a7 3c 84 93 98 bd
       -0.019505965 0.04525389 0.020392729 -0.074500114
000100 bc 7e bd bc 89 ad 4d bd 3f 23 22 3c e3 a4 2d bd
       -0.02313172 -0.050214324 0.009896099 -0.042393576
000110 e9 a1 a7 3d 7b 51 d7 bd 3a 35 f2 ba 9a 68 92 bd
       0.08185179 -0.10513588 -0.0018478998 -0.071488574
000120 3c 1b 94 3c 21 0c 6a bd 9a d5 0a bd ca 6b 26 bd
       0.018079393 -0.057140473 -0.033895113 -0.04063014
000130 a1 0d 82 3d 41 7e 39 3d a0 0e ac 3d ea 63 15 3e
       0.06350256 0.04528642 0.08401227 0.14588895
000140 3f 1f 1c bd 20 87 ee 3d 1b ad ed 3d 16 93 88 3d
       -0.038115736 0.11646867 0.11605283 0.066686794
000150 3d 69 f6 bd e5 d5 ad 3d 60 1e c3 bd 9f fb 05 3d
       -0.12031791 0.08488063 -0.09527278 0.032710668
000160 d2 96 98 3d 54 c6 95 bd 38 01 c1 bc a1 8a 22 bd
       0.07450642 -0.07313219 -0.023560151 -0.039682988
000170 61 12 0d be 4c 15 88 3b f7 13 ce bd bc 14 f5 bd
       -0.13776542 0.0041529294 -0.10062402 -0.119668454
000180 f9 1c 33 3c 65 29 1f 3e d9 0f 49 bd 42 55 2b 3d
       0.010932201 0.15543135 -0.04908738 0.041829355
000190 e6 4e 06 3d c1 01 c8 bd ce 65 c1 bd ec b0 68 3d
       0.032790087 -0.097659595 -0.09443246 0.05680935
0001a0 82 aa 39 bd 07 97 2e bc 3b 64 69 bd c8 aa 86 3c
       -0.045328625 -0.010656125 -0.056980353 0.016438857
0001b0 05 a5 95 bd e6 7b c9 3d 78 8b b1 bc 80 25 23 3d
       -0.073068656 0.09838085 -0.02167295 0.039830685
0001c0 43 7a 13 bd 31 5e fd 3d 51 aa 71 bd 6c 71 0b 3e
       -0.03600527 0.12371481 -0.059000317 0.13617486
0001d0 4c e8 c8 bd cb f3 f3 bc ef 00 a4 3d bb 11 00 3e
       -0.09809932 -0.029779335 0.080079906 0.12506764
0001e0 d7 7e e3 3d 67 0a 2f 3b 6a 79 8f 3c b7 33 07 3d
       0.11108177 0.002670908 0.01751395 0.033008303
0001f0 ac 01 b2 bd 4b 1f f7 3d 6f d4 c0 3d 98 a1 8d bd
       -0.08691725 0.120665155 0.094155185 -0.06915587
000200 99 39 96 bd 5c 12 a3 3d ee 61 d1 3d 94 cb d2 3d
       -0.07335205 0.07962486 0.10223757 0.10292736
000210 7a 74 5c 3d 37 18 73 3d 8e 67 d0 bd 11 b4 27 bd
       0.05382202 0.059349265 -0.101760015 -0.04094321
000220 fa ee 53 bd e3 de d0 3d b5 bc e4 3d 13 b7 ae bd
       -0.051741578 0.10198762 0.111688055 -0.085310124
000230 39 ef a7 bd 3b 14 d5 3c d8 54 0e be 7c 90 a3 3d
       -0.08199925 0.026010623 -0.13899553 0.079865426
000240 be a7 08 3e 0c da 3f 3b 63 9f 3b bc 22 81 8d 3d
       0.13345239 0.0029274253 -0.011451575 0.06909396
000250 29 36 19 3e c2 fc bb 3d e8 9d 33 bd c8 0a dc 3b
       0.14962067 0.09179069 -0.043851763 0.0067151524
000260 d0 24 c3 3d c7 d6 c2 bc b5 80 de bc d1 5f cb bd
       0.09528506 -0.023784054 -0.027160982 -0.09930385
000270 35 be a3 bd 5f d9 c7 3d ac 09 98 bd 09 a7 01 be
       -0.079952635 0.09758257 -0.0742372 -0.12661375
000280 86 c2 0f 3c 61 43 bf bc d9 8a cd bd c3 4f 29 bd
       0.008774405 -0.023347558 -0.10036249 -0.041335832
000290 02 53 11 3e a5 5b b8 bc bd 62 ce 3d 92 bb f4 3d
       0.14191821 -0.022504637 0.100774266 0.11949839
0002a0 e1 ec a1 bd 56 b6 8b 3d 92 f6 26 bd 74 2d 0e 3e
       -0.07906509 0.06821887 -0.04076249 0.13884526
0002b0 b7 b3 6b bd ef e7 d6 bc 76 b3 90 bd 28 09 de bd
       -0.057544436 -0.026233641 -0.070654795 -0.1084159
0002c0 59 86 27 bd c6 d1 e9 bd b7 e7 78 3c 67 1b 5b 3d
       -0.04089961 -0.11416964 0.015191964 0.05349293
0002d0 87 b5 93 3d 96 9a 87 bd 45 67 ad bc d0 0d ad bd
       0.07212358 -0.06621282 -0.021167407 -0.084499
0002e0 87 bf a6 3c 3d 75 88 bd 3a 72 c5 3d 14 2b 82 3d
       0.020355 -0.066629864 0.096409276 0.06355873
0002f0 2d 07 e1 bd bf 23 77 bd 3f ba b7 3d 7c af c7 3d
       -0.10987697 -0.060336825 0.089710705 0.09750268
000300 c6 a3 04 be 7e 35 f9 3d 3c e1 54 3d 9c fd 00 be
       -0.129531 0.12168406 0.051972613 -0.12596744
000310 1b e6 e9 3c 3c 00 0c bd ef 92 d2 3c 02 74 97 bd
       0.028552106 -0.03417991 0.025704829 -0.073951736
000320 2c 65 40 bd b2 64 1b 3e 56 ae 48 3d 80 8e e9 3d
       -0.046971485 0.15175131 0.048994385 0.11404133
000330 06 76 0f bd fd 67 b9 3d 85 11 b1 3d d2 d1 cb bd
       -0.035024665 0.09053037 0.0864592 -0.099521294
000340 ed 3e c9 3c fb fe 74 3d b9 c2 7d bd cf e5 7c 3d
       0.024566138 0.05981348 -0.06195328 0.0617426
000350 0b eb cd 3d 55 c1 7f bc 6f 1f f6 3c 48 7d b4 bc
       0.100545965 -0.015610059 0.030044286 -0.022032395
000360 e1 2a 72 3d b3 ee f1 3b e9 b9 cc 3d 18 a4 a0 3d
       0.059122924 0.0073831915 0.09996397 0.078437984
000370 b3 07 11 bc a0 f8 af 3d f6 d5 67 bd 65 69 03 be
       -0.008851933 0.08592343 -0.056600533 -0.12833174
000380 3b 0c 27 3d cf 99 e9 bd 78 73 8e 3d 5d f7 1b 3b
       0.04078315 -0.1140629 0.06955618 0.0023798563
000390 5f 77 87 3c ce bf c1 3d 12 ec d1 3d ca 97 2a bb
       0.016536413 0.09460412 0.10250105 -0.0026030415
0003a0 a7 cb 0a 3e 36 3d 55 bd 9c 12 40 bd 93 af b9 bd
       0.1355425 -0.05206033 -0.046892747 -0.09066691
0003b0 a9 6c 87 3d 62 86 5f 3d 0a 23 20 3d 85 b3 68 bd
       0.06612522 0.054571517 0.039095916 -0.05681183
0003c0 cc 6b 71 ba e2 49 68 bd b8 bb c9 3d e3 b2 f6 bd
       -0.00092094834 -0.056711085 0.09850258 -0.12045839
0003d0 8e a0 b8 3c 77 35 ac bd 5e 3e a7 bd 58 c2 6a ba
       0.022537496 -0.08408635 -0.081661925 -0.0008955351
0003e0 1d c4 55 3d 40 8d d0 3d bf 5c a4 bd 3b e0 dd 3c
       0.05218898 0.10183191 -0.080255024 0.02708446
0003f0 dc 9a 67 bb 3b 57 29 bd 99 70 b1 3c f1 14 a4 bc
       -0.0035340106 -0.041342955 0.021660136 -0.020029517

weight_hh_l0 f4 [256, 64]
000000 0b 50 2e bd f0 72 c5 bd 2c 25 80 3d e4 ab 52 bc
       -0.042556804 -0.09641063 0.0625709 -0.012858365
000010 97 82 dc bc 89 47 c9 3d de d8 8e 3d c5 99 9f 3c
       -0.026917739 0.098280974 0.06974958 0.019482503
000020 68 d6 95 3d b6 67 84 3c c1 27 c2 bd 1d 89 37 3d
       0.07316285 0.016162734 -0.09480239 0.044808496
000030 15 18 a2 bd 79 9b fb bc 15 e4 f1 bd 71 f3 d7 bd
       -0.079147495 -0.030713784 -0.11811081 -0.1054448
000040 1f 28 b4 bd 7b 95 35 bc ed 45 d8 3d bf e6 ef 3d
       -0.08796715 -0.011083002 0.10560212 0.11713933
000050 9f 32 b5 bc 69 e9 51 3c 67 67 54 bd ec b5 2e 3d
       -0.022118865 0.012811997 -0.051856425 0.042653963
000060 33 20 28 bd 45 32 92 3c 70 06 70 3d 50 a8 cd bd
       -0.041046333 0.017846236 0.05859989 -0.10041869
000070 b9 17 06 bd 9f 83 69 3c 91 c3 9d 3d 62 47 da bd
       -0.032737467 0.014252572 0.07703317 -0.106581464
000080 50 9a 5b bc fd 70 1c 3d b3 34 bc bd c0 10 9c bc
       -0.01340349 0.03819369 -0.09189739 -0.019050956
000090 4e 8b 69 3d 8c ce 85 3d cf 32 c0 3a b5 9d 8a bd
       0.057017617 0.06533536 0.001466358 -0.067683615
0000a0 85 ff 8e bc 86 9b f4 bb 97 85 90 bd 42 6b 40 3d
       -0.017455826 -0.007464829 -0.0705673 0.04697729
0000b0 e0 85 ac bd ea ad c9 bd c1 8c c9 3d ec 3b b6 3d
       -0.08423972 -0.098476246 0.098413 0.08898148
0000c0 de e4 9f 3d a3 7e 36 3c 67 0a 70 3c c7 9e d6 bd
       0.07807325 0.011138591 0.014650918 -0.10479503
0000d0 3e a5 0e be 75 a8 26 3c 4a c2 9c bd 78 1a f4 3c
       -0.13930222 0.010171999 -0.07654245 0.029797778
0000e0 21 c8 ec bd 4f 1e a3 3c eb cd ac bd 55 f4 ae bd
       -0.11561609 0.019911913 -0.08437713 -0.085426964
0000f0 f6 77 88 bd eb 5c 18 bd 8c 2f 56 bd 8f 82 09 bc
       -0.06663506 -0.03719799 -0.052291438 -0.008392944
000100 48 b0 74 3d 35 cc a3 3d bc e3 e2 3a 44 3f 68 bd
       0.059738427 0.07997934 0.0017310302 -0.05670096
000110 fe 2b 12 3d bb 00 b2 bc ae 76 dd 3d 51 d0 1a bd
       0.035686485 -0.021728864 0.10813652 -0.037796322
000120 c8 a5 91 bc b7 7a 95 3c a1 7a 4f 3d 53 a3 6a 3b
       -0.017779246 0.018246992 0.050654057 0.0035802915
000130 42 41 a0 bc 0b 26 6d bc 66 c6 4b 3c 89 ac ca bb
       -0.019562367 -0.014474402 0.012437439 -0.0061851186
000140 b8 27 82 bd 8d 57 f7 bb ed 4a d0 3d 6b bf 30 3d
       -0.06355232 -0.0075482787 0.10170541 0.0431513
000150 e4 15 56 3d a5 9a ea 3b 7d 60 b9 bc 4f 3a c6 3c
       0.05226697 0.0071595483 -0.022629017 0.024197726
000160 42 41 e6 bd eb ff 85 3d 24 9b 09 bd 5b cc f6 3d
       -0.11242916 0.06542953 -0.03359522 0.120506965
000170 6f 70 a0 3d 47 f3 8a 3c 3d 01 95 3d 5b 5d b9 bd
       0.07833945 0.016961707 0.07275627 -0.09051009
000180 e2 53 a3 3d 99 59 d2 3c 07 c2 61 bd a8 20 d4 bd
       0.07974984 0.02567749 -0.05511668 -0.10357791
000190 5e fb c4 bb 98 a6 87 b9 92 49 31 bd 12 58 fc bc
       -0.0060114106 -0.0002587333 -0.043283053 -0.030803714
0001a0 d4 95 df bc 30 db 40 bd 7a f5 1a be ce c4 04 ba
       -0.027293123 -0.047084033 -0.15132704 -0.00050647266
0001b0 03 ef 9f bd cd 7f dc bd 9e fb 62 bd e4 04 8c 3d
       -0.0780926 -0.107665636 -0.055415742 0.0683687
0001c0 26 9e cf bd 91 f9 f6 3d 26 19 9f 3c 64 8a b5 bd
       -0.10137586 0.1205932 0.019421171 -0.088642865
0001d0 fc b1 37 3d a3 6a bf bb 21 04 98 3d 47 c7 f0 3d
       0.044847474 -0.0058415695 0.074226625 0.11756759
0001e0 bc 27 0d 3e ea 26 a7 bc 2a d8 79 3d 68 40 cf bd
       0.13784689 -0.020404298 0.060997166 -0.101197064
0001f0 79 62 59 bd b9 48 10 bd 01 3c 9a 3d 99 be e6 bd
       -0.053072426 -0.035225604 0.07530976 -0.11266822
000200 93 5a e3 bd 00 bd 45 bd 5b 3e a6 bd 95 cd 9e bd
       -0.1110126 -0.048275948 -0.08117362 -0.077540554
000210 79 de a2 bd f1 a1 a9 3a 96 6f 0c be fe 16 ad bd
       -0.079525895 0.0012941939 -0.13714442 -0.08451651
000220 10 12 e6 3d f1 54 cc 3d e5 b1 97 3d 07 74 f6 3b
       0.11233914 0.09977139 0.074069776 0.0075211558
000230 b0 1b 41 3d 6d 82 a8 3d 4e 70 b9 bd e0 1c 15 be
       0.047145545 0.08228002 -0.090546235 -0.14561796
000240 3a 5f 82 3d c4 ed 52 3d 65 d2 b8 3c bf 77 c6 3d
       0.06365819 0.051496282 0.022561261 0.096908085
000250 32 d3 2a bd 6d 4f 16 3d 2f 4c 1c be a3 24 0a bd
       -0.041705318 0.03669684 -0.15263437 -0.033726346
000260 b3 32 93 bd 8c 0b ee b9 f0 9c fa 3d 1a 42 0c be
       -0.071874045 -0.000454035 0.12236965 -0.1369709
000270 8a 8a dc 3d 9a c0 08 be 05 20 c9 bc 51 1f dc bc
       0.10768612 -0.13354722 -0.0245514 -0.026870402
000280 25 d3 30 3d 81 50 a6 bc 26 87 88 3d 99 c9 d5 3d
       0.043170113 -0.02030206 0.066664025 0.10438842
000290 17 a9 89 bc ce 40 ed 3d 74 f6 17 3c d8 45 ed 3b
       -0.016804261 0.11584626 0.009275068 0.007240992
0002a0 ef cd 94 3d de c0 0a be ef da f5 3d 87 66 41 bd
       0.07265841 -0.13550135 0.12004649 -0.04721692
0002b0 af ea 64 bd 0b 7c e1 bd 86 e0 97 bd 4a d7 8d bd
       -0.055887874 -0.110099874 -0.07415871 -0.06925829
0002c0 12 5c 56 bd 7a 87 e9 bd ed 57 f7 bd 67 66 cd 3d
       -0.0523339 -0.11402793 -0.120773174 0.10029297
0002d0 7c b0 18 3e 35 ae 87 3d 87 14 81 bd cc 80 c2 bd
       0.14911073 0.06625024 -0.063027434 -0.09497222
0002e0 ce 78 18 bd 1d 27 14 3d 79 18 89 3d 12 b3 a8 3d
       -0.037224583 0.036170114 0.06694121 0.0823728
0002f0 ab ae 03 3e 74 48 09 3e f5 4b d6 bc ab 13 e7 3d
       0.128596 0.13406545 -0.026159266 0.11283048
000300 8c b5 b0 3d ee 7c 5d 3c e4 34 22 3d 27 0c 53 bd
       0.08628377 0.013518555 0.03960122 -0.05152526
000310 6a 5d 73 3c b0 21 62 3b 4a 26 b3 bd 10 fd d1 3d
       0.014853815 0.0034504943 -0.087475374 0.10253346
000320 be c9 cc bd 56 29 cb 3d 61 c7 55 bd fd 7a 25 bd
       -0.09999417 0.099199936 -0.052192096 -0.040400494
000330 fa 9e 03 bd fe 03 ad 3d c0 5a 91 bd b3 cb 10 bd
       -0.032134034 0.08448027 -0.07097387 -0.035350513
000340 3d e8 b8 bc 5e 80 9b bd 52 3e e6 bd 31 bc 94 bc
       -0.022571677 -0.075928435 -0.112423554 -0.018156143
000350 b0 60 7e 3d 29 a4 ff 3d a8 4d 10 be 21 c6 cc bd
       0.062103927 0.12482483 -0.14092124 -0.099987276
000360 da 4c 0c 3e 80 c5 76 3d a0 d1 34 3d ff 9a bd 3b
       0.13701192 0.060246944 0.044145226 0.0057862992
000370 32 35 23 3e f3 02 0c bc d9 04 bb bd 42 54 1f 3e
       0.15938261 -0.008545625 -0.09131784 0.15559486
000380 87 39 0a 3b 91 66 ee bd 29 43 01 3e 35 91 7f 3d
       0.0021091418 -0.11640657 0.12623276 0.06239434
000390 bf 3a ef 3b 25 de b2 3d c6 64 4f 3d 91 f1 e2 bd
       0.0073007043 0.08733777 0.050633214 -0.110812314
0003a0 4a fb cc 3d 1e d1 4f bd 9d f6 1f bd 6b 2a 69 bd
       0.10008867 -0.05073654 -0.039053548 -0.05692522
0003b0 0d bd 16 3d 8f b0 d1 bc 3e dc e5 3d 76 8e 98 3d
       0.036801387 -0.025596885 0.112236485 0.07449047
0003c0 40 1c 23 3d b5 c6 43 3c be fe 8b bd 2d b3 cd 3d
       0.039821863 0.011949231 -0.068356976 0.10043941
0003d0 42 62 82 bd 6d 49 bb 3d 57 bd 82 3d 14 00 b1 3d
       -0.063663974 0.09144864 0.0638377 0.08642593
0003e0 56 95 05 be 15 3f 81 bd de 70 de 3b f4 a0 63 3d
       -0.13045248 -0.0631086 0.006788357 0.05557342
0003f0 44 74 b9 3c d4 fe 88 bd 30 37 dd 3c 6b 2f f4 3d
       0.022638448 -0.066892296 0.027003855 0.11923107

bias_ih_l0 f4 [256]
000000 96 76 f5 bd 9f f0 7d 3d 3e 0c af 3d fd 5a 64 bd
       -0.11985509 0.061997052 0.08547257 -0.055750836
000010 34 37 34 3d 23 59 b0 3d da 85 18 bd 8f 68 7d bd
       0.04399796 0.086107515 -0.037237026 -0.061867293
000020 16 cf 81 bd 26 98 ce 3d fa fe 72 3d 1e 79 1c bd
       -0.06338327 0.10087614 0.059325196 -0.038201444
000030 d0 6e 4b bd 99 00 57 bc f1 a2 18 3d 48 40 90 bc
       -0.049666226 -0.013122701 0.037264768 -0.017608777
000040 ba 83 1f bd 9b e0 0c 3d a0 72 93 3d 26 4a a0 bd
       -0.038943984 0.034393888 0.07199597 -0.07826643
000050 93 1f 63 3d c7 a4 ab 3d f9 c8 2d bc 36 1b 71 bd
       0.055450033 0.08381038 -0.010606998 -0.05886384
000060 83 36 c0 3c fb d5 b3 bd 87 87 0b 3d cc 0e 0c 3e
       0.023463493 -0.08781048 0.034064796 0.1367752
000070 c4 b5 9c bc ea aa b5 bc 3b c8 b8 3d 06 38 d8 bd
       -0.019129641 -0.022176225 0.09022566 -0.105575606
000080 73 21 d4 bd f1 6f 70 3d 83 7e 6c 3d 8a 0d 77 bd
       -0.103579424 0.058700506 0.05773784 -0.060315646
000090 28 c4 ff bc 8b 12 2b bd 9a b6 e8 bc d9 a6 3e 3c
       -0.031221464 -0.04176573 -0.028407384 0.011636459
0000a0 c0 ee a9 bd 40 f1 d6 3d f0 ea e4 3d 25 a8 2f bd
       -0.08297491 0.104952335 0.11177623 -0.042884964
0000b0 1c 13 89 bd dd fe 08 bd 52 f6 e8 3d 6f 07 12 be
       -0.06693098 -0.03344618 0.11375107 -0.14260648
0000c0 78 5a 57 bc fd 20 97 bd 99 45 b2 bd 78 61 c5 bc
       -0.013144128 -0.07379339 -0.08704681 -0.024094328
0000d0 36 6e b8 3d 1c f3 4a 3b ec 3f b4 3b bc 24 50 bd
       0.09005396 0.0030967658 0.005500784 -0.050816283
0000e0 42 36 0a 3e 24 81 a8 bc e9 ec 3f bd 70 a0 d8 bc
       0.1349726 -0.020569392 -0.046856795 -0.02644369
0000f0 0a 20 48 bd 6c 04 ef 3d b3 e7 79 3a 1a 40 c4 3d
       -0.04885868 0.11670765 0.0009533122 0.09582539
000100 44 2e ae bd 55 0b 8f bd bc 1e 14 3e 45 39 70 3d
       -0.08504918 -0.06984583 0.14464849 0.058648366
000110 34 6a 8c 3d 9a 17 a3 3d 28 c8 78 bd 22 76 c9 bc
       0.06856194 0.07963486 -0.06073776 -0.024592463
000120 b4 9d a0 bd 61 d5 0d 3e a6 55 a4 bd 7a 82 18 3d
       -0.078425795 0.13850929 -0.08024149 0.037233807
000130 a2 18 03 bd f8 b4 8a 3c cb 79 0d be a9 b8 be 3d
       -0.032005914 0.016931996 -0.13815992 0.09312565
000140 01 a7 c6 3d fe 0e f3 3b c1 54 ff 3d b6 eb 38 bd
       0.09699822 0.0074175587 0.124673374 -0.045146666
000150 af c4 06 3e 9b ce bd bd 70 20 27 3d 75 5a 0b bc
       0.13160966 -0.092679225 0.04080242 -0.008505453
000160 55 7f 38 bd a7 82 aa 3d 9e 31 99 bd 1a 6c 6c bd
       -0.04504331 0.08325701 -0.07480167 -0.05772028
000170 5c 7f 2e bc 3f 46 4e 3d a8 a8 70 3d f0 73 c9 3c
       -0.010650482 0.05035996 0.058754593 0.024591416
000180 59 51 3b 3d 31 73 f7 bd 19 81 eb bd 69 bf 93 3d
       0.045731876 -0.12082518 -0.11499233 0.07214243
000190 78 11 9e 3d f0 87 9e 3d 62 c1 a1 3d e2 30 8e 3d
       0.07718176 0.07740772 0.07898213 0.069429174
0001a0 db 88 d6 bd 7c b2 a9 3c cc b3 e7 3d f0 9d 52 bd
       -0.10475322 0.02071499 0.113135904 -0.051420152
0001b0 de 40 bc bc 1c 38 00 3c c1 3a c5 3c 72 c4 8a bd
       -0.02298015 0.0078258775 0.024075868 -0.0677575
0001c0 68 ae aa 3d f7 50 65 bd 89 34 5b bd 04 7a 3b bd
       0.083340466 -0.055985417 -0.0535169 -0.04577066
0001d0 eb 2a a5 bc c4 a9 97 3d 85 e5 a2 bd 40 dc 00 3e
       -0.020162066 0.07405427 -0.079539336 0.12584019
0001e0 cb 22 e3 3d 18 01 a7 3d 47 22 d1 3d 26 c8 e9 bd
       0.110906206 0.081545055 0.10211616 -0.114151284
0001f0 d6 e2 2d bc 1b 68 82 bc e4 f0 ee bd aa 62 b0 bd
       -0.010613164 -0.015918782 -0.1166704 -0.08612569
000200 6c d6 d2 bd ec 91 7d 3d 4e b8 8e 3d a2 2e 9a 3d
       -0.10294804 0.06190674 0.06968747 0.07528426
000210 37 8b e2 bd 51 80 c6 bc eb 99 df bd 11 4e c2 bd
       -0.110617094 -0.024231108 -0.109180294 -0.09487546
000220 c4 f7 b3 3d 2a b5 ef 3d 4c ce 37 bd 84 88 59 3a
       0.08787492 0.11704476 -0.044874474 0.00082982355
000230 ae 7b bb 3d e8 33 53 bd 9e 27 85 3d 7c cd 95 3c
       0.091544494 -0.051563174 0.06501697 0.01828646
000240 cf 5e 9a bd f0 bb 71 bd a7 06 9f bd eb 51 03 be
       -0.075376146 -0.05901712 -0.07764941 -0.12824218
000250 b0 8a df bd bb 64 af 3d 77 8e 80 3c c9 38 fe 3c
       -0.109151244 0.08564135 0.015692933 0.031032937
000260 f3 cc a8 3c 66 70 88 3d d9 88 c4 3c b2 4b 91 3d
       0.02060554 0.06662063 0.023991035 0.07094516
000270 ab 8b c7 bd 60 04 c1 bd 01 02 d2 3d 86 f9 53 3b
       -0.097434364 -0.094246626 0.102542885 0.0032344772
000280 4d 50 1f bc 8f e6 e3 3c ec 26 f4 3b e9 20 cb 3d
       -0.009723735 0.0278199 0.007450929 0.099183865
000290 f4 f7 20 bc 9f a7 c7 bd d8 d3 95 3c ae 3c e0 3d
       -0.009824742 -0.09748768 0.018289492 0.10949074
0002a0 da 47 0c 3e 68 ee 6b 3d ae 0d 85 3d f1 ca 9e bc
       0.13699284 0.05760041 0.0649675 -0.01938388
0002b0 69 fb 4e 3d 9f df 64 bd 3b 10 89 3d ef 96 b7 bd
       0.050532732 -0.055877324 0.06692549 -0.08964335
0002c0 a5 ed 58 bd cf d9 c8 bd 84 52 08 3e 3a a1 35 3d
       -0.05296101 -0.09807169 0.13312727 0.04434321
0002d0 c5 4c 35 3d 77 7a 8b 3d 76 5a 96 bd b3 01 9c 3d
       0.044262666 0.06810468 -0.07341473 0.076175116
0002e0 ed 60 6e ba 52 35 54 3d 9c 1d c8 3d 94 34 45 3c
       -0.00090934226 0.051808663 0.097712725 0.012036461
0002f0 b8 48 00 3e e3 ef 74 bd 48 e5 d0 3c f7 05 d2 3d
       0.1252774 -0.059799086 0.025499955 0.10255044
000300 bf b6 c4 3c 69 5f 0b be 8b 40 c2 3d 15 ee 12 3e
       0.024012921 -0.13610615 0.09484967 0.14348634
000310 40 82 c1 bd 65 43 06 bb 32 c0 d8 bd ab 79 e2 bd
       -0.09448671 -0.0020486948 -0.10583533 -0.110583626
000320 eb e9 d5 bd 4a 77 be 3d 2c c2 f4 3d 5d b9 d7 bd
       -0.10445007 0.09300096 0.11951098 -0.10533402
000330 09 c6 94 bd a2 b7 ce bd fb d2 ec bd b3 a1 e7 3c
       -0.07264335 -0.10093619 -0.11563679 0.028275346
000340 43 2f 80 3d 2a 28 11 bd 37 31 a7 bd 85 37 99 3c
       0.062590145 -0.035438694 -0.08163684 0.018703232
000350 55 4c c2 bd ec de 02 3e 35 06 ae bd f6 d9 62 3d
       -0.094872154 0.1278035 -0.08497278 0.055383645
000360 ac c6 09 3e 34 9c 16 bd d2 6e 99 3c 33 26 1c bc
       0.13454694 -0.03677006 0.018729601 -0.009530592
000370 60 96 7c 3d a4 c5 b9 bc f1 e8 6f bd f8 a8 e8 3b
       0.061666846 -0.02267725 -0.05857176 0.007100221
000380 6c 86 4b 3d b4 38 7b bd bb 55 60 3d 2f 66 b3 3c
       0.04968874 -0.061333373 0.05476926 0.02189931
000390 9a ec 4d 3d df 5c c7 3c 95 71 c0 3d 52 83 e1 3b
       0.05027447 0.024336277 0.09396664 0.0068821097
0003a0 98 03 dd 3d 50 82 98 bd a4 bd 15 3e 02 3e 77 bd
       0.10791701 -0.0744673 0.14623123 -0.06036187
0003b0 e6 88 ed 3d ff 96 cc bd 46 90 aa bd ed 71 08 be
       0.11598377 -0.09989738 -0.08328299 -0.13324709
0003c0 69 e5 c8 3d ce 31 e9 3c be 3a ce 3d 16 75 b3 bd
       0.098093815 0.028466132 0.10069798 -0.08762567
0003d0 3e a9 ab 3d cf 35 53 bc 98 d0 90 3c c0 3f 9d 3d
       0.0838189 -0.012891247 0.01767759 0.07678175
0003e0 a8 5c 0b bc 0c 9a 19 3d f4 ea 92 3c 5b 49 6c 3d
       -0.008505978 0.037500426 0.0179343 0.057687145
0003f0 93 0b 1d 3d da 8a bd bb 37 de 68 bd d0 c5 17 bd
       0.038341116 -0.0057843747 -0.056852546 -0.037053883

bias_hh_l0 f4 [256]
000000 db 0f 63 bc 1a 07 12 be 40 b2 db bc b4 c7 82 3d
       -0.013858761 -0.14260522 -0.026818395 0.063857466
000010 d0 bc 00 3d 03 6f 95 bd fb 2f 85 3d 0f c9 df bd
       0.031430066 -0.072965644 0.06503292 -0.10927021
000020 d5 0f c1 3d 5b 9f 98 bc 40 e1 a7 bd b1 4a 0a be
       0.09426848 -0.018630674 -0.0819726 -0.13505055
000030 68 d2 14 3d 46 72 9e 3d ca 22 d6 bd 79 b6 08 be
       0.03633347 0.0773664 -0.10455854 -0.13350858
000040 f2 93 85 3c 61 42 29 bd 10 4f 90 bd b4 15 ac 3d
       0.016305897 -0.04132307 -0.0704633 0.08402577
000050 70 c1 94 3d aa cc 0c 3e 23 4e 80 3d 90 90 db bc
       0.07263458 0.13749948 0.062649034 -0.026802331
000060 b0 85 13 3e b7 2e 16 bd 5b 88 a8 bd 46 d7 22 bd
       0.14406466 -0.036665644 -0.08229133 -0.039756082
000070 d5 7d 0f 3e c8 8e c7 3d a2 c5 7e bc a6 86 a8 bd
       0.14012845 0.0974403 -0.015550049 -0.08228807
000080 71 c9 a9 bd 7b 6c 86 bd 37 69 69 3d 13 52 12 be
       -0.08290375 -0.0656366 0.056985106 -0.14289121
000090 f9 b6 e3 bd 9b 1d f7 ba 18 6f a9 3b 6f a8 ae bc
       -0.11118884 -0.0018853428 0.005170714 -0.02132055
0000a0 90 03 38 3d fe 3c 5c bd 0f c9 c2 bd 92 19 a6 3d
       0.044925272 -0.053769104 -0.09511005 0.08110346
0000b0 fe 10 f3 3d df 33 63 3d 23 0f 91 bb 42 73 a3 bd
       0.118684754 0.05546939 -0.0044268533 -0.07980968
0000c0 0a ea 9d 3d 73 fa da bd b1 74 ff bb de 2b 91 3d
       0.07710655 -0.10692301 -0.007795893 0.07088445
0000d0 a6 5e 8f bd da 1e d0 bd fb 8c 14 bc ff 64 07 3e
       -0.07000475 -0.101621345 -0.0090668155 0.1322212
0000e0 2d 8e bc bc d1 95 02 bc 1d 66 29 bd fe 2a a2 bd
       -0.023017013 -0.007970289 -0.04135715 -0.07918356
0000f0 c4 ca fa 3c f9 16 f2 3d 49 c5 cd bd e7 7d e0 bb
       0.030614264 0.11820788 -0.10047395 -0.006850946
000100 ba c4 8f bd ab 3d fd 3c c0 8a d6 3d 3a 23 6b 3c
       -0.070199445 0.030913195 0.10475683 0.01435166
000110 e2 f8 e0 bd 28 7e 10 3e 72 6f 14 bd 9a fe db bc
       -0.10984971 0.14110625 -0.036239095 -0.026854802
000120 87 31 32 bd 4e 5d db bd 76 9f 30 3d 86 16 27 bd
       -0.043504264 -0.10711156 0.043120824 -0.040792964
000130 4d 9e 54 3d 4e 26 dd bd c0 68 0f bd 85 b4 a7 3d
       0.05190878 -0.10798322 -0.035012007 0.08188728
000140 7f ff 38 bd 61 31 93 bd 6f fc 56 3c ba cd 1c 3c
       -0.045165535 -0.07187153 0.013121708 0.009570533
000150 3a 29 9d 3d bd 10 0b 3e a6 d4 ba bd 0e 86 c7 bd
       0.07673879 0.13580604 -0.09122591 -0.09742366
000160 05 ea 18 3e cf 3f d5 3c 63 27 c0 3d 03 a0 0d bd
       0.14933021 0.026031403 0.093825124 -0.034576427
000170 0b a2 b5 bd 6d d2 a6 bd d1 a7 9e bd 1b 44 a2 3d
       -0.08868798 -0.08145604 -0.07746852 0.07923146
000180 75 f4 3d 3d 80 b5 3d 3c bd 66 c2 3a 72 68 76 bc
       0.04637571 0.0115789175 0.0014831644 -0.01503955
000190 55 68 87 bd 44 b5 c7 bd 04 75 68 bd e1 4e d4 bb
       -0.06611697 -0.097513705 -0.05675222 -0.0064791297
0001a0 ca d9 37 3d fb 67 b4 bc 51 df 43 bc 50 36 ec 3c
       0.044885434 -0.022022238 -0.011955098 0.028834492
0001b0 61 03 c2 3d 0d 47 dc 3d f5 bf 01 3d 9c b5 d8 bd
       0.09473301 0.10755739 0.031677205 -0.10581514
0001c0 f6 f3 a1 bd dd 40 9e ba 87 95 c6 3c a3 60 03 3e
       -0.0790786 -0.0012073774 0.024241222 0.12829833
0001d0 2e 5c 95 bd 86 0f a1 3d 3f 46 91 3c 97 54 3c 3d
       -0.072929725 0.07864289 0.017733691 0.04597911
0001e0 8b 95 08 3e 3a f7 53 bd 33 c8 62 bd 38 aa cd bd
       0.13338296 -0.051749445 -0.055366706 -0.10042232
0001f0 e7 fa a7 bd f0 51 a8 3d f8 44 a2 3d 62 db 98 bd
       -0.08202153 0.08218753 0.07923311 -0.07463719
000200 9d c3 ff 3d 06 c2 33 3d 08 7b cb bd 54 82 84 bd
       0.12488482 0.043886207 -0.09935576 -0.064701706
000210 b6 70 89 bc ef 2c 10 3e fa 4a db bd 7a 95 8f 3c
       -0.016777378 0.14079641 -0.1070766 0.01752733
000220 63 1b b4 3d 7c 25 a0 3d 17 33 65 bc 0f 5e 92 bd
       0.08794286 0.078196496 -0.013989232 -0.071468465
000230 81 8c 07 be 53 b4 b1 3a 27 59 6b bc e3 c6 e7 3c
       -0.13237192 0.0013557769 -0.014364517 0.028293079
000240 f9 9f 03 be d3 9a 7a bd 5d 78 02 be e1 00 c6 3d
       -0.12853993 -0.061182808 -0.12741227 0.096681364
000250 53 32 5f bd 59 0e 12 3e bb e2 86 3b 76 82 00 be
       -0.054491352 0.14263286 0.004116384 -0.12549767
000260 a6 9b 05 bd 2a 8a c0 3d cb 14 ad 3d b8 e8 f6 bd
       -0.03261914 0.09401353 0.084512316 -0.12056106
000270 77 ce a2 3d 8c 3e 1e 3d 20 0e 2f bd 1b 45 3a bd
       0.07949536 0.038633868 -0.04273808 -0.04547606
000280 29 47 70 bd a8 6c 0a 3e 77 f2 38 3d 2e 84 95 bc
       -0.058661614 0.13518012 0.045153107 -0.018251505
000290 14 60 86 3d 92 03 8e 3c 8f cb 11 be 1c fa 33 bd
       0.06561294 0.017335687 -0.14237808 -0.043939695
0002a0 af 19 a5 3d 3a 24 c0 bd 26 71 e5 3d c7 c8 36 bd
       0.080615394 -0.0938191 0.11203222 -0.04462507
0002b0 ba ac 00 3d 2b b5 b7 bc 2c 74 92 3d 87 cc 83 3d
       0.031414725 -0.022425255 0.07151064 0.06435495
0002c0 2d 46 98 bc c8 ed 1e bd af 3a cd 3c 44 65 c8 3c
       -0.01858815 -0.038800985 0.025052397 0.02446235
0002d0 db f1 11 bd f2 26 46 bd 7a c5 30 bd 10 6a 8a bd
       -0.035631042 -0.048376985 -0.04315708 -0.06758511
0002e0 60 61 49 bd 83 6e 95 bd 88 01 95 3d 2f 10 1b bb
       -0.04916513 -0.07296469 0.07275683 -0.002366077
0002f0 f4 f1 ee b7 10 d6 11 3e 40 6e ab 3d 0a 65 64 3d
       -2.848448e-05 0.14241815 0.08370638 0.05576042
000300 8f 15 24 bd dc 3d 6c 3d aa cb 84 bd 0a bc fc 3d
       -0.040059622 0.05767618 -0.06484158 0.12340553
000310 29 f2 cf bc 71 25 14 3e 22 4c e4 bc d7 68 d2 bd
       -0.025384026 0.14467408 -0.027868334 -0.10273903
000320 f7 89 66 3d 3b a5 11 3d e3 4d 88 3d 72 d0 ab 3d
       0.056283917 0.035557967 0.06655481 0.08389367
000330 dd f5 1d bd 78 d1 01 3e 66 47 49 3c 44 d4 af bd
       -0.03856455 0.12677562 0.012285089 -0.08585408
000340 37 d5 e8 3d 92 3b a8 bd 73 0b 4c 3d 3e 6a 34 bd
       0.113687925 -0.08214487 0.049815606 -0.044046633
000350 0a b1 2b 3c 26 31 a8 3d fe 82 e0 bc 01 33 de bc
       0.010479221 0.08212499 -0.027406212 -0.02712393
000360 47 b1 40 3d 5a dc d1 bd 42 42 a0 3c c1 84 55 3d
       0.047044065 -0.10247107 0.019562844 0.052128557
000370 85 22 eb 3d 63 c0 0f bd 56 e5 be 3d 01 ed a0 bc
       0.114811935 -0.035095584 0.09321086 -0.019644262
000380 32 43 87 3c 9d 8c 08 3b 67 3c 89 bd d4 61 27 bd
       0.016511533 0.0020835765 -0.06700974 -0.04086478
000390 42 13 08 b9 12 ae 84 3d 23 e0 ba bd b0 4f 4b 3d
       -0.00012977145 0.06478514 -0.09124782 0.049636543
0003a0 6c 59 c7 3c 52 62 9f 3d bf 9d dd bc 80 b5 96 bd
       0.024334632 0.07782425 -0.027052758 -0.07358837
0003b0 d8 98 a4 bd d5 a2 c3 bc ca 22 2f 3d 6a 7f c7 bd
       -0.08036965 -0.023881355 0.042757787 -0.09741099
0003c0 5a 2d 8d bc c1 fd 25 bc 66 7a 9d 3d bd fb 99 3c
       -0.01723354 -0.0101313 0.07689361 0.018796796
0003d0 69 50 fc 3d ff 7e 16 3d 9d b2 e3 3d 7c c7 f0 3d
       0.123200245 0.036742207 0.11118052 0.117567986
0003e0 07 84 8b bd 59 c4 8c 3d 83 1f 86 3d fe 04 a3 3d
       -0.068122916 0.06873388 0.06548979 0.079599366
0003f0 14 b4 9d 3d 7a 32 f7 3c 90 24 62 3c 29 3b c1 bd
       0.07700363 0.030175436 0.0138026625 -0.09435112

weight f4 [1, 64]
000000 13 18 c3 3d 56 30 ae bd 34 72 f0 3d c8 84 bd 3c
       0.09526076 -0.08505313 0.117405325 0.023134604
000010 b6 46 8c bc 36 08 ca 3d 24 50 bc bc 17 bc 87 3d
       -0.017123561 0.09864847 -0.022987433 0.06627672
000020 60 09 ab bd 02 28 b3 3c 37 f5 0d be 7c 10 ae 3d
       -0.083513975 0.021869663 -0.13863073 0.08499238
000030 1b 6f 82 bd 20 df f6 3d 77 83 54 bd 92 ce 90 3d
       -0.06368848 0.120542765 -0.051883187 0.0707065
000040 65 70 e0 bd 08 94 1b 3d f2 49 ec bd 83 21 8b bd
       -0.109589376 0.03798297 -0.115375414 -0.06793501
000050 0a 01 a3 bd be ac d7 3d b6 36 6b bb 67 c9 a5 bc
       -0.079591826 0.10530995 -0.0035890765 -0.020237638
000060 dd 79 5e 3d 43 3a 36 3d 77 87 5c bd 31 72 11 bd
       0.054315437 0.044489156 -0.053840127 -0.035509292
000070 c2 b4 b1 3c b5 50 a5 3c 89 3c ba ba 4f a9 73 bd
       0.021692637 0.020180086 -0.0014208715 -0.059487637
000080 45 6c ac 3c 32 d8 97 bc a9 c6 9c 3c 69 88 17 bd
       0.02104772 -0.018535707 0.019137697 -0.036995325
000090 9e 71 c3 b9 bb 57 fb 3d d6 82 b9 bd 11 21 41 3d
       -0.0003727795 0.12272593 -0.09058158 0.047150675
0000a0 c9 17 58 3d 1c bb 41 3d 73 3c a6 3d 3c 71 df bc
       0.05275706 0.047297582 0.081169985 -0.027275674
0000b0 c8 1b 51 3d 59 06 02 bd 9a 6d 98 3d 21 3d d3 3d
       0.051051885 -0.031744335 0.0744278 0.10314394
0000c0 55 b3 2d bc 66 93 06 3c a8 cc ac 3c de ef a7 3d
       -0.010601838 0.008213853 0.021093681 0.08200048
0000d0 e3 21 d5 3c ba 72 fc 3d c8 38 ce bd c9 b6 a5 bd
       0.026017135 0.1232657 -0.10069424 -0.08091504
0000e0 55 ad 35 bd 2e 6d 05 be 21 2a 94 bb 3e ba 82 bd
       -0.044354755 -0.1302993 -0.0045216237 -0.06383179
0000f0 cd 53 18 3d 0a 6b 01 3e cb 49 ac 3c a3 81 0d 3e
       0.037189294 0.12638488 0.021031281 0.13818984

weight_ih_l0 f4 [256, 6]
000000 11 6e 2c bd e9 b6 ee 3d 94 94 01 3e 31 aa 40 bd
       -0.042097155 0.11655981 0.12654334 -0.047037307
000010 be bf 9b 3d 80 93 64 bd 06 e5 21 bd a9 16 68 3c
       0.07604931 -0.05580473 -0.039525054 0.014165559
000020 37 a8 e2 3d 1e c8 96 3d ab fe af bd 9a db 41 bd
       0.11067241 0.07362388 -0.08593496 -0.04732857
000030 6c 5d 75 bd 3d 20 47 3d 69 ec c7 3d 34 78 d7 bc
       -0.059903547 0.04861473 0.097618885 -0.026302435
000040 d2 00 ee bc 94 19 d2 3d 1c 79 1c 3e 96 1d 57 3d
       -0.029053126 0.10258785 0.15280575 0.05251845
000050 91 af 44 3e ca 59 8e 3b dd 6e 40 bd 5c 71 8e bc
       0.19207598 0.0043442 -0.046980727 -0.017388038
000060 da f4 d4 bc 14 06 2d 3e 33 10 d3 3d 3d 90 8d 3e
       -0.02599566 0.1689685 0.10305824 0.27649108
000070 16 d1 94 3d 99 14 dd bd 73 a0 ca 3c cc 4b b4 3b
       0.072664425 -0.10794944 0.024734711 0.0055021998
000080 35 7d a5 3d fc 7d 93 3d a3 cb aa 3c 07 81 ad 3d
       0.08080522 0.07201764 0.020849055 0.08471876
000090 bd f2 00 3e 08 9c 2a bc 6e f3 8f 3d 1d a6 93 3c
       0.12592597 -0.010413177 0.070288524 0.018023545
0000a0 17 23 73 bd 69 d0 8e bd 92 c5 94 3c ca f8 55 3e
       -0.059359636 -0.06973345 0.018160615 0.20895687
0000b0 c9 20 95 3d 92 d8 a0 3d 42 8e fc 3d b6 6d c5 3d
       0.07281644 0.078538075 0.12331821 0.09640066
0000c0 2d 14 48 3d 55 63 4a 3d 94 85 80 bd 62 e8 99 3d
       0.048847366 0.049411137 -0.06275478 0.07515027
0000d0 c7 d0 9d 3c 62 67 aa bd d1 2f 38 3e 5a 47 89 bc
       0.019264592 -0.083205 0.1798699 -0.016757656
0000e0 f5 c4 c1 bd 1f 28 a7 bd 0a 8c f0 3d 9d fe b7 3d
       -0.09461395 -0.08161949 0.1174546 0.089841105
0000f0 ce 3e 02 bd 87 20 61 bd 5f f8 e7 3c 1e 9f 95 3d
       -0.031798176 -0.05496266 0.028316675 0.0730574
000100 87 02 00 3d 8a c0 8e be c3 ba 32 bc b9 b1 ba bc
       0.03125241 -0.2788127 -0.010908785 -0.022789823
000110 0d d1 21 3d e1 8d fe 3c 98 bf 4c 3d ac c2 d9 bd
       0.039506007 0.031073513 0.049987406 -0.10632834
000120 da bc ba bd 1b ae 7a 3d a9 43 15 3e 03 a4 22 3e
       -0.09118052 0.061201196 0.14576592 0.15882878
000130 71 6b ad 3d e2 a0 4b bd 70 f8 32 3e 72 9e 0c 3d
       0.084677584 -0.049713977 0.17477584 0.034330793
000140 61 bc 08 bd a1 ad 89 bd 87 7a 81 bd 34 1a 25 3d
       -0.033382777 -0.0672257 -0.06322198 0.040308192
000150 8d b0 e1 3b 34 62 ba 3d ef ec 9b 3d f0 b2 2a bc
       0.0068875016 0.09100762 0.07613551 -0.010418639
000160 0b ec 05 3b 23 03 59 bd aa 85 d1 3d e2 4e cc 3d
       0.0020434882 -0.052981507 0.102305725 0.09975983
000170 8c 7b eb 3d a7 48 ec 3d d9 63 bd bd 6b 11 87 bc
       0.11498174 0.11537295 -0.0924756 -0.016487798
000180 3c 14 d7 bc 66 5b 8d 3d 2a 81 f1 3d 56 36 a1 3d
       -0.026254766 0.069021985 0.11792214 0.07871692
000190 cc 02 da bd f1 8a c6 3a 74 23 1b 3e ac 06 44 3d
       -0.10645065 0.0015147609 0.15150243 0.047857925
0001a0 f5 c4 37 3d 69 7a 0b 3e 70 b7 0f 3e ca cb a8 3d
       0.044865567 0.13620915 0.1403482 0.08241995
0001b0 84 89 a1 bc 29 b3 bf 3d cd 84 b9 bd 89 90 dc 3d
       -0.019718893 0.09360344 -0.09058533 0.107697554
0001c0 dd b3 50 3d c2 bd f8 ba b8 8f 1d 3e c0 41 91 3d
       0.05095278 -0.0018977451 0.15386856 0.07092619
0001d0 77 aa 4e bd 24 9e 5e bd 27 15 16 3e ea 38 47 3c
       -0.050455537 -0.054350033 0.14656506 0.012159565
0001e0 ab de b6 3d 2a ff 87 bd 88 1a ab 3d 96 1c db bd
       0.08929189 -0.066404656 0.0835467 -0.10698812
0001f0 7c 7e 87 bd e4 f0 55 3d 65 58 27 3e 21 e3 98 3d
       -0.06615922 0.052231684 0.16342314 0.074651964
000200 37 45 9f bd fe be 15 ba a1 c6 8e bd 93 97 a1 bd
       -0.077768736 -0.0005712359 -0.06971479 -0.078902386
000210 39 f9 98 3d 83 36 f1 3d 8c 63 b7 3d fa 22 a4 bc
       0.074694104 0.117779754 0.08954534 -0.02003621
000220 f2 4e 64 3d 47 03 c8 3d 35 35 13 be 8e 9e 5c bc
       0.05573935 0.0976625 -0.14375766 -0.013465537
000230 63 29 69 3c 5a 9c f3 bd ba ed aa 3c b3 23 0c 3e
       0.014231059 -0.11895056 0.02086531 0.13685493
000240 3b 1a 13 be 5f 0a 03 be d5 28 c0 bd 6e 56 9e 3d
       -0.14365475 -0.12796925 -0.09382788 0.07731329
000250 14 e4 b0 bd ec 6c 41 3d c9 45 8c bd 63 95 e3 3d
       -0.086372524 0.047223017 -0.06849248 0.11112478
000260 3a 87 75 bd 35 3a da bd a0 87 b8 bd 64 41 b2 bb
       -0.059943415 -0.10655633 -0.090102434 -0.005439924
000270 1e f4 9e 3d b7 1c 1d bc 01 5b 9b bd 57 e4 8a bb
       0.077614054 -0.009589366 -0.07585717 -0.004238646
000280 52 04 0e 3e 82 af 3f 3d f4 62 3e 3e 0f f6 40 3c
       0.13868836 0.046798237 0.18592435 0.011777415
000290 0c fb f8 3b 7a 27 0e 3d 81 3b 30 3c b0 74 8b bd
       0.0075982865 0.034705617 0.010756374 -0.06809366
0002a0 30 f6 e9 3d bd dd 14 3e 78 68 44 bd 56 43 99 3d
       0.1142391 0.14537711 -0.04795119 0.074835464
0002b0 c7 3f ec 3c f8 30 87 bd ea 73 27 3e a6 e1 18 3e
       0.028839005 -0.06601137 0.16352811 0.14929828
0002c0 46 7d 96 bc 23 e8 0c bc 58 13 b6 3d e9 7c 60 3d
       -0.018370282 -0.008600268 0.08890408 0.054806624
0002d0 5c 22 17 be cb ae 71 3b df 4c 91 3d cf 6d 02 be
       -0.14759201 0.0036877866 0.0709474 -0.12737201
0002e0 ec 8f 89 3b 37 87 d4 3c fe 06 9a 3d 6f 32 8a 3d
       0.004198065 0.025943382 0.07520865 0.06747901
0002f0 13 ff f4 bd 8b cb 4e bc 57 cb a0 bd 07 f9 f5 bd
       -0.11962714 -0.012621771 -0.07851284 -0.12010389
000300 fe 05 c6 bd fd fb 19 bd 3b 98 be 3b d0 87 b2 3c
       -0.09669112 -0.03759383 0.005816487 0.021793276
000310 ec fe 11 3e 88 c0 76 3d 61 dc 51 3d 17 cc 62 3d
       0.14257401 0.060242206 0.05123556 0.055370416
000320 8b 54 24 3e 67 47 de 3d 16 ce d9 bc c8 6f c2 bd
       0.16047876 0.10853463 -0.026587527 -0.09493977
000330 a4 98 95 bd 61 3d 10 bd 83 df d1 bd 20 5d 7d bd
       -0.073045045 -0.035214785 -0.102477096 -0.06185639
000340 70 aa 21 3e 6c d8 6f 3d 8d 5e 1b 3e c9 90 55 bd
       0.15787673 0.058556005 0.15172787 -0.05214003
000350 97 02 8a 3c a9 09 38 bd 76 0a 8f 3d d9 7e 0e 3e
       0.016846938 -0.044931088 0.06984417 0.13915576
000360 fa fa 2f 3d 7c c9 d6 ba 79 6a 96 3d 30 a3 03 bd
       0.04296396 -0.0016386951 0.07344527 -0.03213805
000370 7f 15 45 bd 05 74 ee bd 46 39 8f bd 4e ec 2e 3e
       -0.048116203 -0.11643223 -0.06993346 0.1708233
000380 d2 bb 8f 3d e8 fe d9 bb ad 1d 0a 3d 04 da 2a 39
       0.07018246 -0.0066527016 0.033719707 0.0001629368
000390 52 85 07 3e e9 9c e8 3d f9 04 8d 3d 53 7e 8c bd
       0.13234451 0.11358053 0.06885714 -0.06860032
0003a0 6f 02 6f 3c 3f 64 20 bd c2 fd 9a bd 52 3e 43 3e
       0.014587983 -0.039158102 -0.07567932 0.19066742
0003b0 cd a3 d8 3c 99 5f c6 bc 96 50 55 bd ea b8 6a bc
       0.026445294 -0.024215506 -0.052078806 -0.0143263135
0003c0 bb 41 ab bc bf 7a cd bc 3f 15 b1 3d bb 0a 2e bd
       -0.020905366 -0.025082944 0.086466305 -0.042490702
0003d0 c9 20 cb 3d 59 66 89 3d 3c f9 7f 3d 32 f1 b2 3d
       0.09918363 0.067089744 0.062493548 0.087374106
0003e0 90 46 f0 bb 3b e8 9c 3d a0 c7 6e bd 3c 9c af bd
       -0.0073326305 0.07661482 -0.058295846 -0.08574721
0003f0 ed c6 42 3e be d3 cf 3d e9 47 e6 bb bd 54 f4 3d
       0.19021197 0.101478085 -0.0070276153 0.11930225

weight_hh_l0 f4 [256, 64]
000000 2f c2 15 3e 81 1b 96 bd c3 28 46 3d 85 c0 ab bc
       0.14624856 -0.07329465 0.048378717 -0.020965824
000010 8e cc b0 bd 74 03 26 be 78 46 c3 bd e1 73 7e 3b
       -0.08632766 -0.16212255 -0.09534925 0.0038826393
000020 3a 0a 87 bd b4 39 ac 3d c4 08 d4 bd b6 97 9f bd
       -0.065937474 0.084094435 -0.103532344 -0.077926084
000030 c7 ef 22 bb a2 d2 47 3d 89 a7 0d 3b f5 9e 91 3d
       -0.0024862157 0.04878486 0.0021614751 0.07110397
000040 ef 23 b1 bd 4d ef d3 bd cb 3c a3 3b 8c a6 79 bd
       -0.08649432 -0.103483774 0.0049816123 -0.060949847
000050 96 0a 27 3d 7e 8b 98 3d ee 56 8f bb a0 6a 6c 3d
       0.04078158 0.07448481 -0.0043743765 0.057718873
000060 d4 57 9a bd 39 d8 81 3d c4 fb 7b 3b 0b e3 5b 3d
       -0.07536283 0.06340069 0.0038449625 0.053683322
000070 46 d2 c7 bc 71 57 ef bd 2d 72 c9 bd f9 39 e0 bd
       -0.024392258 -0.116866 -0.098362304 -0.109485574
000080 82 0f 14 3e 68 b1 a2 3d 4b ba 84 3d 69 27 5f bd
       0.14459041 0.07943994 0.06480845 -0.054480944
000090 6c 13 95 3d 6d ef 97 bd 51 d4 fa 3c 24 97 90 3d
       0.07279095 -0.07418714 0.030618818 0.07060078
0000a0 57 72 43 3d f1 ff 0e bd 4e a7 7f bc 62 bd 66 bb
       0.047716465 -0.034912053 -0.015603853 -0.0035208096
0000b0 e9 a0 9b bd 8e 7f f3 3d 87 4b 6c bd 70 57 08 be
       -0.075990506 0.118895635 -0.057689216 -0.13314605
0000c0 00 e0 80 bd c9 57 2e 3d fa c7 8b bd ad 3d 8c 3c
       -0.062927246 0.042564187 -0.06825252 0.017119253
0000d0 6c d6 83 bd 65 23 9d bd fb 95 16 be 4d d5 be bc
       -0.06437382 -0.076727666 -0.1470565 -0.02329507
0000e0 e7 9d b9 3d 09 f3 a0 3c 07 90 bd bc cd 6c 6a bb
       0.090633206 0.019647138 -0.023139967 -0.0035770417
0000f0 8e a5 86 bc ba f2 01 3e 17 58 d2 3d 1b 64 b0 bd
       -0.016436365 0.12690249 0.10270708 -0.086128436
000100 81 49 93 3d 51 b2 df 3d f2 90 b0 bc ea 92 96 3d
       0.07191754 0.10922683 -0.02155349 0.073522404
000110 3d 52 b3 3c 4a 56 18 3d 20 e9 63 3d 63 86 9d 3d
       0.0218898 0.037191667 0.055642247 0.07691648
000120 0d d4 81 3d 22 5c 05 3e ff 71 d0 bd a7 e1 fb 3d
       0.063392736 0.13023427 -0.10177993 0.12298899
000130 57 0b 17 3d 7a f0 c1 bd d0 f9 29 3d 70 da c2 bc
       0.03687605 -0.094696954 0.041498005 -0.0237858
000140 17 d2 af bd 95 ae 1e 3d c2 3f cb bd 37 d4 cf 3d
       -0.08584993 0.038740713 -0.0992427 0.10147899
000150 f4 89 87 bc b0 ee 2e bd a7 77 bb 3c 2e a3 d1 3c
       -0.016545273 -0.0427081 0.022884203 0.025590505
000160 8e a9 78 3d 8b f9 8c 3d a1 8e 0d 3d 27 1a b3 3d
       0.060708575 0.06883534 0.03455985 0.087452225
000170 b2 50 5c 3d 72 e1 43 3d 1b 5c 8c 3d 20 f4 32 be
       0.053787895 0.047822423 0.06853505 -0.17475939
000180 2c 6e 8c bd f0 80 19 3d b0 38 80 bc ea 37 83 3d
       -0.06856951 0.03747648 -0.01565203 0.06407149
000190 f5 32 ed 3c 32 41 af 3d ca 06 c1 3c e1 67 91 bd
       0.028954962 0.08557357 0.023562808 -0.070998915
0001a0 97 5b 66 3c d1 62 7f 3d 36 2c ca 3d 1a 75 6b bc
       0.014059923 0.062350098 0.09871714 -0.014371181
0001b0 35 93 94 bd 13 0f d9 bd c9 bc 05 be c4 2d 87 3d
       -0.0725464 -0.10598578 -0.13060297 0.06600526
0001c0 cd c7 bf 3d 2c fa e3 3c 59 09 45 3d fa 31 e1 bc
       0.09364281 0.027829252 0.048104618 -0.027489651
0001d0 38 21 11 3c 64 81 8a 3d 43 3a 03 3d 69 07 a9 3d
       0.008858018 0.067629606 0.032037985 0.082533665
0001e0 1a 9b 23 bd d6 4b 18 bd ab ad c8 3d 7a de de bc
       -0.03994284 -0.037181698 0.097987495 -0.027205694
0001f0 64 48 5b bd fa fc 13 3d 3c a6 eb 3d 3e 5b c4 bd
       -0.053535834 0.03612993 0.11506316 -0.095877156
000200 f3 7b 9b 3c bb f1 f3 3c 91 c6 65 3d c0 e2 16 bc
       0.018980002 0.029778352 0.05609757 -0.009209335
000210 2a 21 9e 3d d7 fc f4 bc 69 81 ab bd aa 3c d8 ba
       0.07721169 -0.02990572 -0.083742924 -0.0016497571
000220 3c 1d b3 bd 14 5a 29 bd 7b a9 00 3e bb e3 8d bd
       -0.087458104 -0.04134567 0.12564652 -0.06928202
000230 ed e3 98 3d df 2a 10 3d 52 1d 33 bc 5e 7b a1 bd
       0.074653484 0.035197135 -0.0109322835 -0.078848585
000240 15 24 a8 bd 32 7d d9 bd de 95 f0 3d c6 4a 63 bd
       -0.08210007 -0.10619582 0.11747335 -0.05549123
000250 06 b8 ef bd 08 53 ad bd e3 25 16 3d 40 f5 ce bc
       -0.117050216 -0.084631026 0.036657225 -0.025263429
000260 67 6c a2 bd 88 34 87 bd 88 bf 0a 3b 89 a0 0c be
       -0.07930832 -0.066018164 0.002117129 -0.13733114
000270 8d 9a 07 bd 5f 83 2c 3c 8c a8 30 3c 28 d9 1c bd
       -0.033106375 0.010529368 0.010782372 -0.038293034
000280 74 a6 fc bc bb dd 8b bd 32 82 bb 3d e3 04 ba bd
       -0.03084109 -0.06829401 0.09155692 -0.09082963
000290 31 1f de 3b 84 0a e6 bd 04 ce 95 3d d2 de a6 bc
       0.0067786206 -0.112324744 0.07314685 -0.02036992
0002a0 c8 b9 3d 3d 0e af 21 bd e3 9b 14 3d fc a5 98 bd
       0.046319753 -0.039473586 0.036281478 -0.07453534
0002b0 d8 6a 0f 3d 22 65 8a bd 9f 7a 98 bc 1e 13 53 bd
       0.035014004 -0.06757571 -0.018613158 -0.051531903
0002c0 e0 75 a5 3d 98 8e 13 bd 49 31 2b bd 6d 43 40 3d
       0.080791235 -0.03602466 -0.04179505 0.046939302
0002d0 ce 8d 71 bd e2 fb f1 bd 21 3e 84 bc 20 6a c7 bd
       -0.058973126 -0.11815621 -0.016142907 -0.097370386
0002e0 cc 4f 89 3d 3d bc 85 bd 6e 5f 8a 3c 69 56 d2 3d
       0.06704673 -0.06530044 0.016891208 0.10270388
0002f0 0d de 02 3e 19 bc 96 bd a7 e5 79 bd a8 d3 8a 3d
       0.12780018 -0.073600955 -0.06101003 0.067786515
000300 c6 8d af 3d 55 3c 1e 3e 06 8c d7 bd c9 a3 71 3d
       0.08571963 0.15452702 -0.10524754 0.05899409
000310 e8 ff 19 bb b0 7f 1e be 9a 0a 93 3d 05 21 f3 3d
       -0.002349848 -0.15478396 0.071797565 0.11871532
000320 39 ca 03 3e 3a a1 39 3e 04 ee f9 3c 5d f7 9e 3d
       0.1287011 0.1812791 0.030509003 0.077620246
000330 b4 c5 01 3e 16 da 24 bd 57 ed 38 3d b8 89 92 bd
       0.12673074 -0.040247045 0.04514822 -0.07155174
000340 fb 3d a0 bc 9e ae 00 bd 90 79 68 3b cd 03 04 bd
       -0.019560805 -0.031416528 0.0035472848 -0.032230187
000350 39 3e 17 3c b5 2d f7 3d 3c db 13 3d b8 01 d4 bc
       0.009231144 0.12069265 0.03609775 -0.025879726
000360 1a be e7 bd 06 34 f4 3d a1 86 51 3c c0 9c a0 3d
       -0.11315556 0.11923985 0.012788446 0.07842398
000370 43 2d e6 3d 6b 15 b6 bd 8b 4b 05 bd 5d ea 0c be
       0.11239102 -0.08890804 -0.032542747 -0.13761277
000380 1c 40 3e 3e cf 74 6c bd bc c4 a6 b8 a2 ce 0c 3d
       0.18579143 -0.057728585 -7.9521415e-05 0.034376748
000390 fc eb 89 3d 48 d8 64 bd 8f be 11 3e fe 2d 0b bd
       0.067344636 -0.055870324 0.14232849 -0.03397941
0003a0 07 db 6f bc 59 ea 98 bb 5d 6a 73 3d 47 96 f8 bd
       -0.0146396225 -0.0046666083 0.059427608 -0.12138038
0003b0 6f d1 df bd 12 e1 f1 3d 0d d5 48 be d6 e2 78 bc
       -0.10928618 0.11810507 -0.19612522 -0.015190801
0003c0 cb c5 d2 3d 62 d5 fc bd 80 24 4d be 7d 32 b6 3c
       0.10291632 -0.12345387 -0.20033455 0.022240872
0003d0 95 37 10 be 4a b2 9f bc 25 5c 44 bd 57 15 34 3e
       -0.14083703 -0.019494195 -0.04793944 0.17586266
0003e0 0d 1f bf 3d 8d d1 6c 3d a3 b4 20 bd 1f ad bf bd
       0.09332094 0.05781703 -0.03923477 -0.09359192
0003f0 03 7a 02 bd 85 4c 32 3e e3 d4 11 3e 47 ae 76 bd
       -0.03185464 0.17412002 0.14241366 -0.060224798
